Jupyter-notebook/Machine learning/Indian sign language detection model/models/model.tflite (tflite, 373100 bytes, 10 tensors)

sequential/conv2d/BiasAdd/ReadVariableOp f4 [65]
0.0033010705 -0.0028342865 0.02051506 0.005535468 0.020494375 0.009276729 0.020793676 0.022980621
-0.008974667 0.009538134 0.01510769 0.010301503 -0.0064659156 0.0023538223 -0.002213234 -0.0018818981
-0.017596524 0.018964019 0.008398161 -0.0016904307 0.0042753224 -0.014990943 0.009481999 0.007173254
0.011278901 0.017073607 0.004598839 -0.0013008857 0.0058803568 0.016802983 -0.0018954579 0.008078024
0.02062577 0.017627507 0.014521668 0.010160072 0.005475838 0.0048492085 0.0064310865 -0.017820876
0.0006688028 0.009036114 0.020021334 0.00762904 0.020062225 0.00026719135 0.019300282 -0.012556191
0.011826902 -0.010620837 -0.004605861 0.017291114 -0.0066742525 0.011139465 0.008079488 0.008395572
-0.0067585437 0.022214038 0.019489547 0.022323413 -0.01591615 -0.0054886816 0.009568059 -0.011180479
0.001000169
00000000: c656 583b 70bf 39bb 330f a83c df62 b53b
00000010: d2e3 a73c 6cfd 173c 8057 aa3c db41 bc3c
00000020: 7b0a 13bc d545 1c3c 3f86 773c a3c7 283c
00000030: 08e0 d3bb 9642 1a3b e80b 11bb 06aa f6ba
00000040: 9626 90bc 6e5a 9b3c 7198 093c 7191 ddba
00000050: 0118 8c3b 929c 75bc 635a 1b3c 9e0d eb3b
00000060: 24cb 383c f3dd 8b3c dcb1 963b 7b82 aaba
00000070: 02b0 c03b 69a6 893c 0371 f8ba b059 043c
00000080: 60f7 a83c 9067 903c 4aec 6d3c 6e76 263c
00000090: a96e b33b 1ce6 9e3b ddbb d23b 16fd 91bc
000000a0: 9952 2f3a 360c 143c c803 a43c 07fd f93b
000000b0: 8959 a43c d115 8c39 a01b 9e3c 7bb8 4dbc
000000c0: 9fc5 413c 0503 2ebc c3ec 96bb 18a6 8d3c
000000d0: b0b3 dabb 4d82 363c d45f 043c 958d 093c
000000e0: c676 ddbb 37fa b53c 8ba8 9f3c 97df b63c
000000f0: 9662 82bc 66da b3bb 59c3 1c3c 542e 37bc
00000100: 1a18 833a

sequential/conv2d_1/BiasAdd/ReadVariableOp f4 [40]
-0.0053407913 -0.008679214 0.013301725 -0.004953714 -0.00063073495 -0.01686355 0.0219025 -0.008433177
-0.010726078 0.018434279 -0.007651856 0.019433118 0.02143818 0.01309943 0.021048183 0.0013098889
0.017162008 -0.007157846 -0.004549738 0.017390354 0.021759119 0.007773815 -0.006179052 -0.012350731
-0.010706427 -0.008698821 0.0034937765 -0.008009264 0.017250821 0.00461492 0.005334336 0.015608525
0.017801082 0.021321962 0.015219196 0.014419659 0.016233899 0.007698883 -0.012089478 -0.0061534415
00000000: ce01 afbb 4333 0ebc 7aef 593c c452 a2bb
00000010: e857 25ba 6d25 8abc df6c b33c 4f2b 0abc
00000020: 6fbc 2fbc 7c03 973c 6cbc fabb 3432 9f3c
00000030: 1f9f af3c fe9e 563c 3d6d ac3c 94b0 ab3a
00000040: 5797 8c3c 5d8c eabb f815 95bb 3776 8e3c
00000050: 2e40 b23c 7dbb fe3b a579 cabb b85a 4abc
00000060: 026a 2fbc 8085 0ebc d8f7 643b 4a39 03bc
00000070: 9851 8d3c c138 973b a7cb ae3b e6ba 7f3c
00000080: 93d3 913c 65ab ae3c ef59 793c 6f40 6c3c
00000090: f4fc 843c e946 fc3b f212 46bc cfa2 c9bb

sequential/conv2d_2/BiasAdd/ReadVariableOp f4 [25]
-0.0037001406 -0.009274997 -0.012698542 -0.012251753 0.012022649 -0.0023071722 -0.009698871 0.01318256
-0.005550135 0.020277256 0.018169055 0.003138079 0.01792404 -0.007592696 0.017024968 0.0032522355
0.018133208 -0.018731171 0.017749349 0.009512848 0.0035762072 -0.004221629 -0.009581806 0.0014185654
0.0064464645
00000000: 0f7e 72bb 28f6 17bc 8c0d 50bc 94bb 48bc
00000010: a5fa 443c ed33 17bb 03e8 1ebc aafb 573c
00000020: e8dd b5bb 7d1c a63c 45d7 943c 3ba8 4d3b
00000030: 70d5 923c 27cc f8bb f277 8b3c 7523 553b
00000040: 188c 943c 1d72 99bc 1567 913c c7db 1b3c
00000050: cd5e 6a3b 9755 8abb 02fd 1cbc 28ef b93a
00000060: dd3c d33b

sequential/conv2d/Conv2D f4 [65, 3, 3, 1]
-0.06825658 -0.05952877 0.016919332 -0.014021126 -0.10809368 0.039913878 -0.00667144 -0.09594523
0.063968726 0.017165594 -0.0346552 0.008782071 -0.08929116 -0.007270708 -0.11215268 -0.008469507
0.084947854 -0.03991521 -0.0035566797 0.009917553 0.07013403 0.02164777 -0.038763747 0.077286854
-0.00073313055 0.0471066 0.075471096 0.08004959 -0.10589848 -0.09041491 -0.046276793 0.008741697
0.055102363 -0.11670268 0.009545938 -0.04217685 -0.049286038 0.09669334 0.059945535 0.0768063
0.03362525 -0.022429328 -0.034580726 0.097338654 -0.07271673 -0.07450961 -0.009719741 0.04037789
-0.040242273 -0.06307765 -0.010936256 -0.10950685 -0.035494566 -0.071465105 0.08213643 -0.010422132
0.0105735585 0.017152315 0.052887738 -0.032819092 0.09351566 -0.022026885 -0.040277734 0.059795972
0.110587165 -0.016445577 0.052919764 0.076044984 0.011719847 0.090928316 0.07861746 -0.026714748
-0.016208546 -0.05895966 -0.06628535 -0.041219026 -0.08340017 0.030113582 -0.07325955 0.005027622
0.09092709 0.03769246 -0.0012148063 -0.0089587625 0.07284909 -0.061746415 -0.11201482 -0.058401078
-0.09629626 -0.03721517 0.022342056 -0.010687783 0.0864342 0.004693362 0.053480662 0.02921472
0.10436686 0.10456759 0.08675984 -0.02503538 -0.05003763 -0.0057131182 -0.110435955 -0.01705232
-0.016942143 0.004928294 -0.11358901 -0.044212803 -0.064287424 0.073695906 -0.046617437 -0.040578473
-0.07609362 -0.08743273 0.028328821 0.01609518 0.016974412 0.031020295 -0.024798283 0.009162186
0.016874792 0.07014263 0.08357542 -0.024242833 -0.056585096 -0.03365923 -0.055222385 -0.06069995
0.08395998 -0.06800705 -0.029339587 0.029852655 0.059325144 -0.013216525 -0.063573994 -0.09920245
-0.04882661 0.050059177 0.075122304 -0.031738743 -0.054291256 -0.055560376 0.068609506 0.002235806
-0.089120224 -0.0056857034 0.056102656 0.045762036 0.067873806 -0.078612864 -0.005008135 0.0682861
-0.09846562 0.028151339 0.0961038 -0.07942424 0.032414515 0.05504167 -0.00034325448 0.083223574
0.079099044 0.064085476 -0.023161206 -0.10759024 0.098422445 -0.054002594 0.04994061 0.012636454
-0.047151484 -0.07723368 0.037018366 -0.046679918 0.037600055 0.025010807 -0.08416074 0.037359856
0.09182278 -0.0052873865 -0.032626543 0.012188229 0.0060172025 0.05595352 -0.05691652 -0.08884053
-0.11026375 -0.11285951 -0.008389028 0.07726005 0.021339932 -0.08364711 0.0720872 0.08970988
0.064483926 0.0023370832 0.10099365 -0.056884926 -0.058550324 -0.083800696 -0.08338907 0.07219249
-0.07681523 -0.115391836 -0.07245033 -0.008176449 -0.113715485 -0.112850964 -0.049226094 0.04048529
-0.012564141 -0.014527654 -0.032698777 0.007898243 -0.059398063 -0.0418611 0.006690197 -0.038484152
-0.04372302 -0.08967175 0.09450512 -0.06461142 0.017140562 -0.041501418 -0.11094681 0.00090334314
0.023045287 -0.041111007 0.032378186 -0.07610217 0.06878722 -0.069461316 0.04181393 0.019302204
0.079786584 -0.08056613 0.085388094 0.013211173 -0.10446144 -0.039582912 -0.003909716 0.064625435
-0.05420736 -0.051524315 -0.11442395 -0.05123223 -0.03290497 -0.06224636 0.07264143 0.00466473
-0.03749804 -0.0037530006 -0.09765968 -0.047426075 0.0009275038 -0.045189288 0.036544617 -0.0926947
00000000: 1bca 8bbd 71d4 73bd 699a 8a3c ddb8 65bc
00000010: 3860 ddbd bc7c 233d 189c dabb ef7e c4bd
00000020: 0902 833d dc9e 8c3c 9cf2 0dbd ade2 0f3c
00000030: 49de b6bd 1f3f eebb 4eb0 e5bd b0c3 0abc
00000040: 24f9 ad3d 227e 23bd 2f17 69bb 3b7d 223c
00000050: 6ea2 8f3d aa56 b13c bcc6 1ebd 9248 9e3d
00000060: 8f2f 40ba daf2 403d 9790 9a3d 0af1 a33d
00000070: 4de1 d8bd 742b b9bd bc8c 3dbd 5639 0f3c
00000080: 04b3 613d d101 efbd 9166 1c3c a2c1 2cbd
00000090: 28e0 49bd 2807 c63d 7389 753d 9f4c 9d3d
000000a0: a1ba 093d b6bd b7bc 85a4 0dbd 7d59 c73d
000000b0: 82ec 94bd 7f98 98bd 8c3f 1fbc 4963 253d
000000c0: 15d5 24bd db2e 81bd fb2d 33bc 2145 e0bd
000000d0: c062 11bd 4c5c 92bd 2537 a83d 97c1 2abc
000000e0: b83c 2d3c 0383 8c3c d0a0 583d 506d 06bd
000000f0: 2385 bf3d ba71 b4bc 44fa 24bd 9fec 743d
00000100: 867b e23d e0b8 86bc 65c2 583d 79bd 9b3d
00000110: 9a04 403c a038 ba3d 3102 a13d e3d8 dabc
00000120: c9c7 84bc af7f 71bd 9dc0 87bd 48d5 28bd
00000130: b5cd aabd c2b0 f63c 1a09 96bd c0be a43b
00000140: fb37 ba3d 6963 1a3d 233a 9fba c6c7 12bc
00000150: e731 953d cfe9 7cbd 0768 e5bd f835 6fbd
00000160: f936 c5bd ef6e 18bd b006 b73c d01b 2fbc
00000170: 6a04 b13d c6ca 993b 8a0e 5b3d b553 ef3c
00000180: 4bbe d53d 8827 d63d 25af b13d ff16 cdbc
00000190: 42f4 4cbd 1c35 bbbb 3f2c e2bd 4fb1 8bbc
000001a0: 40ca 8abc 877d a13b 5ba1 e8bd 7c18 35bd
000001b0: 20a9 83bd e1ed 963d edf1 3ebd 9d35 26bd
000001c0: f9d6 9bbd ee0f b3bd d811 e83c 0ada 833c
000001d0: ec0d 8b3c 461e fe3c c525 cbbc fe1c 163c
000001e0: 013d 8a3c f0a6 8f3d 9729 ab3d e898 c6bc
000001f0: c6c5 67bd 43de 09bd de30 62bd 83a0 78bd
00000200: 36f3 ab3d 4847 8bbd 9359 f0bc 8e8d f43c
00000210: ecfe 723d 208a 58bc 1533 82bd a72a cbbd
00000220: 69fe 47bd da0a 4d3d b9d9 993d 7c00 02bd
00000230: 8260 5ebd 4793 63bd 2483 8c3d 9a86 123b
00000240: aa84 b6bd 234f babb e6cb 653d f970 3b3d
00000250: 6c01 8b3d c8ff a0bd 481b a4bb 95d9 8b3d
00000260: 58a8 c9bd a39d e63c 12d2 c43d 2da9 a2bd
00000270: 15c5 043d 6073 613d d6f6 b3b9 1f71 aa3d
00000280: aefe a13d 3f3f 833d 92bc bdbc 4658 dcbd
00000290: b591 c93d d331 5dbd 868e 4c3d 2109 4f3c
000002a0: ea21 41bd b12c 9ebd 92a0 173d 7133 3fbd
000002b0: 8402 1a3d 77e3 cc3c 775c acbd a606 193d
000002c0: 950d bc3d d041 adbb 69a3 05bd 23b1 473c
000002d0: f42b c53b 852f 653d 4c21 69bd 06f2 b5bd
000002e0: f6d1 e1bd e322 e7bd 2272 09bc 843a 9e3d
000002f0: 15d1 ae3c 2d4f abbd 74a2 933d d0b9 b73d
00000300: 2610 843d c029 193b c2d5 ce3d 2b00 69bd
00000310: 77d2 6fbd b39f abbd e4c7 aabd a8d9 933d
00000320: 4e51 9dbd 8e52 ecbd d760 94bd 83f6 05bc
00000330: aae3 e8bd 681e e7bd 4da1 49bd e7d3 253d
00000340: d4d9 4dbc 6605 6ebc 27ef 05bd a267 013c
00000350: 624b 73bd 8b76 2bbd 7139 db3b 8fa1 1dbd
00000360: e916 33bd d3a5 b7bd e68b c13d fe52 84bd
00000370: 5d6a 8c3c 64fd 29bd 1538 e3bd 55ce 6c3a
00000380: 78c9 bc3c 0464 28bd fd9e 043d 74db 9bbd
00000390: 50e0 8c3d bc41 8ebd 1545 2b3d a81f 9e3c
000003a0: 2667 a33d dbff a4bd f4df ae3d ad73 583c
000003b0: e1ef d5bd b121 22bd 131d 80bb 575a 843d
000003c0: 8908 5ebd 290b 53bd 1b57 eabd e3d8 51bd
000003d0: 5dc7 06bd 0af6 7ebd 08c5 943d 97da 983b
000003e0: 8b97 19bd e7f4 75bb cc01 c8bd d841 42bd
000003f0: ba23 733a 6718 39bd cfaf 153d b8d6 bdbd

sequential/conv2d_1/Conv2D f4 [40, 3, 3, 65]
-0.023845315 -0.012879098 0.065675095 0.06827943 0.06998218 0.014761096 -0.014383942 0.08008933
-0.049838543 0.03922438 0.062817365 -0.038601954 -0.043506444 0.031985767 -0.025698345 -0.031014169
0.06792611 -0.032207403 -0.023708487 -0.04174153 -0.020049527 -0.043861248 -0.013373584 0.02995932
0.058538962 -0.062281497 0.08602418 -0.049153943 -0.046966236 -0.027958136 0.07572629 -0.08176783
-0.07380165 -0.014894337 0.04961262 -0.036291398 -0.036933042 -0.00086540886 0.010939768 -0.02988256
0.012847159 0.0062558805 -0.028697422 -0.0011076053 0.03135663 -0.03738554 -0.0125267245 0.036143113
0.049336594 -0.011448859 0.047996588 0.053069253 0.06865342 0.036925677 0.08777671 -0.043609798
-0.0152126625 0.024102444 -0.061231155 0.018980922 -0.0155723225 -0.0023681656 0.038659368 0.033937037
0.013833789 0.0055112587 -0.0018320273 -0.016382774 -0.04220855 0.034502152 -0.018556183 0.09156089
0.026941624 0.037024476 -0.049559597 -0.070504226 0.047977 0.05790253 -0.045401793 -0.019047176
0.0014942867 0.03482172 -0.017447112 -0.02438385 -0.052651383 -0.009451795 0.059152413 0.07741784
-0.066177115 0.00073012395 0.074781805 -0.046863124 0.07512446 0.01661133 -0.0029636992 -0.028545888
0.025160221 0.00059587095 -0.05123831 -0.029177438 -0.010964418 -0.056853324 0.06729422 0.010866921
0.002625627 -0.029668732 -0.048258923 0.0074738828 -0.052847747 0.04588205 -0.0746761 0.017913131
-0.0008332475 0.025263282 0.05719197 -0.030642703 0.06341014 0.028239878 0.09134879 -0.012378183
0.01828557 0.050141327 -0.020970672 0.028872501 0.04155023 -0.077959806 0.06576311 0.038254406
-0.034565806 0.048090607 -0.06325485 0.020612117 -0.017868675 0.048662066 -0.033306867 -0.0656789
-0.05594666 0.07287276 0.02781919 0.0010346927 -0.015423825 -0.063232146 0.018224087 -0.011677102
0.06655298 -0.023620421 -0.03263679 0.056736194 0.003174079 -0.054271095 -0.013118046 -0.055881754
-0.012431361 -0.03222608 -0.07137489 -0.04831023 -0.067650035 0.027575484 0.020588867 -0.023637034
-0.06875573 0.03251174 -0.03819397 -0.026012015 -0.023538614 -0.015578853 0.06393042 0.06871662
0.011113037 -0.06701417 0.0243538 0.05781607 0.064227104 -0.040951077 0.041686956 -0.07430003
0.01363972 -0.016507836 0.014913573 -0.04121747 -0.073861875 0.05914576 0.04162675 -0.04865111
-0.07104005 -0.06977442 -0.0837347 0.07686475 0.070619695 0.07046731 -0.059396487 0.035580017
0.013098015 0.015182319 -0.06706989 0.071688086 -0.0088701425 -0.059154984 0.027009465 -0.032534227
0.016349206 -0.052619178 -0.03196085 -0.034538463 0.04385125 -0.04281526 -0.06287129 0.052716117
0.048787076 -0.051629767 0.077638656 0.023630513 -0.03958571 -0.04204588 0.03116235 0.034791674
-0.022408865 0.03350086 -0.016788134 -0.060667336 -0.05968448 -0.035927966 0.005544754 0.022241196
0.07099792 0.010208705 0.051342156 -0.029668208 -0.0016123069 -0.010717784 -0.04671505 0.09043117
-0.037172426 0.042151272 -0.031172048 0.043847386 0.045724954 -0.064062305 0.0046251453 -0.030645631
0.013066079 -0.017304352 -0.0131730875 0.00023862833 -0.005589628 0.03545416 -0.061409507 -0.033924088
-0.023402635 0.08103162 -0.056805477 0.021146221 -0.009377281 0.07452588 0.034097146 0.049120188
00000000: 4057 c3bc da02 53bc aa80 863d 16d6 8b3d
00000010: d152 8f3d 86d8 713c a0aa 6bbc e005 a43d
00000020: 8023 4cbd bea9 203d 64a6 803d 151d 1ebd
00000030: d033 32bd 8203 033d 5685 d2bc 6d11 febc
00000040: d81c 8b3d e9eb 03bd 4d38 c2bc 2bf9 2abd
00000050: e83e a4bc daa7 33bd e01c 5bbc 3f6d f53c
00000060: 8dc6 6f3d e21a 7fbd 722d b03d a555 49bd
00000070: ab5f 40bd 7608 e5bc 6316 9b3d e475 a7bd
00000080: 5225 97bd 6107 74bc 9a36 4b3d 4aa6 14bd
00000090: 1a47 17bd 9bdc 62ba b63c 333c 45cc f4bc
000000a0: e47c 523c 21fe cc3b db16 ebbc 112d 91ba
000000b0: cf6f 003d 9421 19bd e43c 4dbc cd0a 143d
000000c0: 2b15 4a3d ff93 3bbc 1298 443d 255f 593d
000000d0: 2a9a 8c3d 613f 173d 47c4 b33d 30a0 32bd
000000e0: 883e 79bc 7d72 c53c 85cd 7abd e17d 9b3c
000000f0: 0e23 7fbc 3a33 1bbb 4959 1e3d 9001 0b3d
00000100: 1ea7 623c ca97 b43b a320 f0ba 2b35 86bc
00000110: dfe2 2cbd 2152 0d3d 2303 98bc 4784 bb3d
00000120: aeb4 dc3c faa6 173d 01ff 4abd 8564 90bd
00000130: 8883 443d 342b 6d3d 3bf7 39bd d308 9cbc
00000140: f1db c33a 38a1 0e3d 3fed 8ebc a4c0 c7bc
00000150: faa8 57bd b4db 1abc cd49 723d 3f8d 9e3d
00000160: de87 87bd ca65 3f3a 3427 993d 8cf3 3fbd
00000170: dada 993d 7c14 883c 9f3a 42bb 11d9 e9bc
00000180: cf1c ce3c 3934 1c3a 43df 51bd 8605 efbc
00000190: 1aa4 33bc 08df 68bd 8dd1 893d 2c0b 323c
000001a0: b612 2c3b d70b f3bc 26ab 45bd 79e7 f43b
000001b0: e176 58bd d1ee 3b3d c8ef 98bd 8fbe 923c
000001c0: 4b6e 5aba f1f4 ce3c 2142 6a3d 6806 fbbc
000001d0: 2ddd 813d 5157 e73c 1315 bb3d ddcd 4abc
000001e0: 9fcb 953c fe60 4d3d b0ca abbc 0686 ec3c
000001f0: 9330 2a3d 64a9 9fbd cfae 863d a7b0 1c3d
00000200: e094 0dbd a8fa 443d c28b 81bd beda a83c
00000210: 5461 92bc e051 473d c86c 08bd a982 86bd
00000220: 5328 65bd 503e 953d 12e5 e33c 879e 873a
00000230: 36b4 7cbc db7f 81bd ae4a 953c 5151 3fbc
00000240: ee4c 883d 9d7f c1bc 28ae 05bd 3664 683d
00000250: 3504 503b 5e4b 5ebd 13ed 56bc 44e4 64bd
00000260: e8ac 4bbc 7eff 03bd 002d 92bd f3e0 45bd
00000270: 1a8c 8abd fbe5 e13c fca9 a83c 74a2 c1bc
00000280: cecf 8cbd 082b 053d 4871 1cbd 2617 d5bc
00000290: 0dd4 c0bc 723e 7fbc f4ed 823d 4dbb 8c3d
000002a0: 7513 363c ba3e 89bd 9f81 c73c 8bd0 6c3d
000002b0: 8089 833d 51bc 27bd f1bf 2a3d 9d2a 98bd
000002c0: 2279 5f3c 713b 87bc 0f58 743c a6d3 28bd
000002d0: e544 97bd d342 723d d080 2a3d 6346 47bd
000002e0: 727d 91bd e4e5 8ebd 197d abbd 446b 9d3d
000002f0: 0fa1 903d 2a51 903d bb49 73bd 5abc 113d
00000300: 0f99 563c 43bf 783c f05b 89bd 34d1 923d
00000310: 1354 11bc 7f4c 72bd f442 dd3c 9c42 05bd
00000320: c5ee 853c 3587 57bd 61e9 02bd 3478 0dbd
00000330: 5e9d 333d 0e5f 2fbd aac2 80bd dbec 573d
00000340: f5d4 473d bc79 53bd 0401 9f3d c794 c13c
00000350: a024 22bd 4d38 2cbd 2f48 ff3c b781 0e3d
00000360: cc92 b7bc 3338 093d 4587 89bc 507e 78bd
00000370: b777 74bd 3429 13bd c5b0 b53b 2b33 b63c
00000380: 5c67 913d 6a42 273c 274c 523d be0a f3bc
00000390: 0b54 d3ba a599 2fbc 4858 3fbd fa33 b93d
000003a0: 1d42 18bd d0a6 2c3d 865c ffbc 5199 333d
000003b0: 174a 3b3d 1933 83bd 888e 973b 8c0c fbbc
000003c0: 1b13 563c dbc1 8dbc efd3 57bc 4e38 7a39
000003d0: 3329 b7bb 6238 113d 8988 7bbd fcf3 0abd
000003e0: e2b6 bfbc e8f3 a53d dcac 68bd d73a ad3c
000003f0: 2ba3 19bc 06a1 983d 73a9 0b3d 4032 493d

sequential/conv2d_2/Conv2D f4 [25, 3, 3, 40]
0.102917686 -0.049844295 -0.08669193 0.07257717 0.101983584 -0.08039748 -0.09120167 -0.0735088
0.05222558 -0.036497585 0.054006305 0.08888316 -0.055107176 -0.062339883 0.0038013048 0.034023087
0.09650462 -0.09389475 0.050217725 -0.029491471 -0.083681814 0.09815668 0.09240254 -0.042256366
-0.016207173 0.08351298 0.07222143 -0.025910316 -0.012629169 0.093973875 0.07197631 -0.037680734
-0.028229814 0.01848621 0.051009227 0.09501731 0.03647674 -0.077408135 0.013733783 0.0043364563
0.10525481 -0.058653653 0.00039860478 -8.678824e-05 0.07832932 -0.095520355 -0.0936062 -0.08968802
0.018816192 0.03868565 0.051896036 -0.064676166 -0.00040223994 0.05579387 -0.06766474 0.040334467
0.025487466 0.06497054 0.040737297 -0.05672402 -0.011530277 -0.011350788 -0.022755878 -0.055699717
0.042245824 0.050647207 0.0398705 0.0840942 -0.036013074 -0.034649305 0.026413908 0.0279955
-0.027151374 -0.026360633 -0.051997263 -0.079388514 -0.008716431 -0.069316626 0.06895475 -0.022662457
0.066909425 -0.07906618 -0.028036812 -0.07131581 -0.009647184 -0.106055684 -0.06648491 -0.10193286
0.00265412 -0.035057414 -0.10407075 0.054679316 0.03496521 -0.06870268 -0.015040867 -0.034802265
-0.017905477 0.06645463 0.008333157 -0.07387597 -0.091661304 0.0077922973 -0.09973818 0.039366525
-0.044895 0.040420927 0.039198417 0.075721785 0.10989466 0.064911865 -0.014716839 0.023352718
0.04008651 0.082138985 -0.013377105 0.0903575 -0.06866095 0.09707488 -0.06770808 -0.08699301
0.021201715 -0.009232696 0.09680731 0.039668128 0.062033262 -0.014574027 0.06811288 -0.08450326
0.081034325 -0.0393448 -0.02117578 0.039310753 -0.095051244 0.017677827 -0.0043712035 0.025026502
-0.07923013 0.03450708 -0.038921863 0.05737955 -0.045953523 0.09201671 0.0972418 -0.06403484
-0.03300791 0.10540661 -0.0013047768 0.06190947 0.00817756 0.051220275 0.089267336 0.08109849
0.10246486 -0.06311808 0.09615594 -0.07376972 -0.006991125 -0.0658728 0.03691893 0.037198935
0.05137259 -0.0011539562 -0.09888954 -0.093400665 -0.09888562 0.007321586 -0.07366297 -0.101716466
-0.001843262 0.014584637 -0.07574962 0.09004853 0.07194874 -0.0036826713 -0.07741852 0.07392739
-0.05855731 -0.0951011 0.038880456 0.094662175 -0.073248066 0.092951454 -0.01647854 -0.007627271
-0.01790992 0.053638 0.0033739314 0.010876804 0.079714805 -0.08507586 0.075165726 -0.08592656
-0.02875268 0.036349367 -0.010733377 0.084087454 -0.08302338 -0.07878022 -0.0932521 -0.09512474
0.04999779 -0.04227716 0.09052133 -0.057283722 -0.0738878 -0.028877314 0.05722344 -0.051614076
0.084075026 0.00857546 -0.050632603 -0.04842793 -0.031266015 -0.09577145 0.08010538 -0.06915529
-0.05849442 -0.032757588 0.008849416 0.0046209777 0.08973846 0.0069793225 -0.053236935 -0.05779705
-0.017801853 0.07964309 0.057307113 -0.074289404 0.004830258 -0.050270904 0.09239893 -0.062740296
-0.035853177 0.03340215 -0.037163317 -0.06809902 0.07725206 -0.020050386 0.054064997 0.09032582
0.05929556 -0.029148871 0.0783661 0.08126098 0.06646223 -0.038959976 0.054666907 0.037394848
0.07706999 -0.071022935 0.087998964 -0.07238593 0.0643797 -0.0659244 0.08942133 -0.008410828
00000000: 82c6 d23d 8829 4cbd 8a8b b1bd 57a3 943d
00000010: c5dc d03d 6fa7 a4bd f1c7 babd c88b 96bd
00000020: 7dea 553d 7e7e 15bd b735 5d3d 6008 b63d
00000030: 10b8 61bd 1b58 7fbd 501f 793b cb5b 0b3d
00000040: 37a4 c53d e44b c0bd 1ab1 4d3d 1998 f1bc
00000050: 5f61 abbd 5f06 c93d 8b3d bd3d 0315 2dbd
00000060: e8c4 84bc da08 ab3d d4e8 933d df41 d4bc
00000070: 93ea 4ebc 6075 c03d 5168 933d 1d57 1abd
00000080: 3642 e7bc 6470 973c 0def 503d 6f98 c23d
00000090: a268 153d 2888 9ebd a903 613c d518 8e3b
000000a0: d58f d73d d03e 70bd d4fb d039 1502 b6b8
000000b0: 1f6b a03d 2da0 c3bd 9bb4 bfbd 5aae b7bd
000000c0: 6a24 9a3c d874 1e3d f090 543d f074 84bd
000000d0: bbe3 d2b9 1d88 643d d093 8abd c135 253d
000000e0: 17cb d03c 460f 853d 27dc 263d 7257 68bd
000000f0: 7de9 3cbc a8f8 39bc 896a babc 6325 64bd
00000100: f509 2d3d 7273 4f3d 404f 233d 9439 ac3d
00000110: 7282 13bd 6eec 0dbd fb61 d83c d256 e53c
00000120: 8f6c debc 41f2 d7bc 15fb 54bd 7296 a2bd
00000130: 5dcf 0ebc e0f5 8dbd 2638 8d3d 9ea6 b9bc
00000140: cf07 893d 73ed a1bd 75ad e5bc 060e 92bd
00000150: 390f 1ebc b933 d9bd 3e29 88bd 2dc2 d0bd
00000160: bff0 2d3b 5d98 0fbd 0c23 d5bd 6bf7 5f3d
00000170: ae37 0f3d feb3 8cbd f86d 76bc d28c 0ebd
00000180: 82ae 92bc 5d19 883d cb87 083c 494c 97bd
00000190: ecb8 bbbd 8756 ff3b 8843 ccbd cb3e 213d
000001a0: d2e3 37bd 6a90 253d 858e 203d 0614 9b3d
000001b0: 7410 e13d 83f0 843d e61e 71bc 334e bf3c
000001c0: c131 243d 7c38 a83d a52b 5bbc 5a0d b93d
000001d0: 1d9e 8cbd 32cf c63d 89aa 8abd 6429 b2bd
000001e0: 38af ad3c bc44 17bc e942 c63d 0c7b 223d
000001f0: 9716 7e3d e6c7 6ebc c47e 8b3d 0c10 adbd
00000200: 53f5 a53d 0328 21bd d478 adbc 5004 213d
00000210: 3aaa c2bd 17d1 903c 503c 8fbb 6104 cd3c
00000220: 6843 a2bd 4c57 0d3d 886c 1fbd d206 6b3d
00000230: c339 3cbd 4273 bc3d b526 c73d b324 83bd
00000240: 4d33 07bd 6cdf d73d 0b05 abba c994 7d3d
00000250: 2cfb 053c 5acc 513d cbd1 b63d f716 a63d
00000260: 19d9 d13d 0d44 81bd 68ed c43d 9414 97bd
00000270: cf15 e5bb 52e8 86bd 4e38 173d e95d 183d
00000280: 116c 523d 5840 97ba 9986 cabd d948 bfbd
00000290: 8b84 cabd eae9 ef3b 9cdc 96bd b950 d0bd
000002a0: 9c99 f1ba 67f4 6e3c 9e22 9bbd 5d6b b83d
000002b0: dc59 933d f958 71bb 9a8d 9ebd 3e67 973d
000002c0: cad9 6fbd 5ec4 c2bd 1d41 1f3d 3ede c13d
000002d0: 1503 96bd 555d be3d 01fe 86bc 30ee f9bb
000002e0: d3b7 92bc 85b3 5b3d 2d1d 5d3b 9f34 323c
000002f0: 8441 a33d 413c aebd 7df0 993d 44fa afbd
00000300: be8a ebbc 13e3 143d 0cdb 2fbc 0b36 ac3d
00000310: 2908 aabd 8657 a1bd f5fa bebd c2d0 c2bd
00000320: 7cca 4c3d d12a 2dbd 3f63 b93d 56a2 6abd
00000330: 7d52 97bd 1e90 ecbc 2063 6a3d 4869 53bd
00000340: 872f ac3d 1680 0c3c 2264 4fbd 5d5c 46bd
00000350: cb10 00bd d223 c4bd 4a0e a43d 4aa1 8dbd
00000360: d897 6fbd d22c 06bd 24fd 103c 926b 973b
00000370: ccc8 b73d cdb2 e43b f90e 5abd 99bc 6cbd
00000380: 31d5 91bc eb1b a33d ddba 6a3d 0b25 98bd
00000390: 2447 9e3b dde8 4dbd a63b bd3d fc7d 80bd
000003a0: c8da 12bd b1d0 083d 9038 18bd 8077 8bbd
000003b0: 5436 9e3d b540 a4bc 4273 5d3d befc b83d
000003c0: e7df 723d 9dc9 eebc 687e a03d 286c a63d
000003d0: 5a1d 883d 7f94 1fbd 68ea 5f3d 572b 193d
000003e0: dfd6 9d3d 7974 91bd cd38 b43d 133f 94bd
000003f0: 81d9 833d 5f03 87bd 8822 b73d 92cd 09bc

sequential/dense/BiasAdd/ReadVariableOp f4 [256]
-0.005589163 0.005138468 -0.005996846 0.0012607239 0.011260282 0.013290649 -0.007265929 -0.01607682
-0.00884881 0.019045118 -0.009018324 -0.0072225546 -0.0068153376 -0.01013664 -0.003393591 -0.0029222947
0.013273537 0.00012718188 -0.0053208834 0.019698098 -0.002959829 0.0149370115 -0.010228014 0.004504567
-0.007972759 -0.009686087 -0.00023938715 0.013716997 -0.00603762 -0.0039128563 -0.01219627 0.0076747416
-0.0018783992 0.0039453427 0.009815402 0.01759277 0.0 0.010086254 -7.744241e-05 -0.017562725
0.017498069 -0.020750785 -0.012456708 0.008641334 -0.009601196 0.0 0.014350003 0.018221818
0.010057822 0.015970174 -0.00974505 0.0052258493 -0.007465146 0.00047661545 0.014951923 -0.011512771
0.0 -0.010448199 -0.010751385 0.011127311 0.013988215 -0.0026221257 -0.000399028 -0.008457551
-0.011716599 -0.0016241308 0.008017423 0.017484479 0.007324033 -0.010884444 -0.00030800857 -0.008648329
-0.010154053 -0.0050898553 -0.013234561 0.0 0.010500783 -0.015718862 0.00071295473 0.01831981
-0.008905951 -0.0051622386 0.00025972846 0.013287249 0.0 0.011943223 -0.0076818494 -0.01155505
0.0024748803 0.005843459 -0.0003569266 0.015584776 0.0073726648 -0.008874312 -0.0076112417 0.0068960893
0.01486212 0.00039308972 0.010892099 0.00082479324 -0.009083867 0.0 -0.0016086065 -0.005589365
0.01786078 0.014750512 0.004428234 -0.019568108 0.00303102 -0.00974999 0.00469711 0.015453456
0.00041451104 0.008881425 -0.010759011 0.0 -0.0078255525 -0.0170924 0.013819411 -0.008155936
-0.015362904 0.0033050007 0.01537593 -0.007199485 0.004752147 -0.0025535533 0.020550761 0.01605503
0.016577205 -0.004322487 0.0150487535 -0.0032460962 0.010448259 0.014090388 0.008240363 -0.019069266
-0.008111833 0.011635465 0.0054046097 -0.0088121155 0.0 -0.0031509975 -0.0074512227 0.0022863206
-0.0030459005 -0.006819315 0.009019261 -0.0026271094 -0.0020138544 0.015185268 -0.00065045914 -0.007847564
-0.0043332446 -0.0015381168 -0.003920126 0.015052831 -0.0049283938 0.0073457994 0.016020201 -0.0057113636
0.011057334 -0.015014321 0.0075073694 0.012790416 -0.0043385355 0.0014629983 0.014302482 -0.021427318
0.010408485 0.01644231 0.01374807 0.013522566 -0.00864935 0.016116755 -0.0144330505 -0.0025255221
-0.002439928 -0.0154708745 0.004656012 -0.017298087 0.009505826 -0.014225896 -0.0054280832 -0.016092854
0.0010607851 0.009360799 -0.007352549 0.0054533845 0.012403749 -0.0024640814 0.002046543 -0.0040217517
-0.001520642 0.00794751 -0.0083466 0.01851697 0.008030001 0.0007150946 0.018832203 0.014114711
-0.0066884076 -0.011933627 0.0065926523 -0.012792582 0.019422607 -0.007058248 -0.009717304 -0.009761857
0.012144148 -0.0123015065 -0.0026929567 -0.0074685356 -1.3273343e-05 -0.004834583 -0.0055891476 -0.018267674
0.013700633 0.01504531 0.011324312 -0.0022348615 -0.016912533 -0.005205947 0.016507316 0.017756503
-0.0031253907 -0.013399727 0.0054837754 -0.016077628 -0.015508018 -0.0041652117 -0.008644339 -0.0049071885
0.007814553 0.007306765 0.014727328 0.008422021 0.012797397 0.006549253 -0.013626857 -0.015943052
-0.017862055 -0.0071230596 0.013103921 0.017392239 0.0 -0.007749691 -0.0014349942 0.009949094
0.010153395 -0.00117837 -0.0025063946 -0.002545787 -0.00937217 -0.0048659164 0.0005077295 0.0064254906
00000000: 4c25 b7bb 9860 a83b 3181 c4bb e03e a53a
00000010: 0c7d 383c 06c1 593c 0817 eebb 89b3 83bc
00000020: 99fa 10bc 8204 9c3c 98c1 13bc 2eab ecbb
00000030: 3253 dfbb 2614 26bc 0267 5ebb f883 3fbb
00000040: 4079 593c 205c 0539 ce5a aebb e85d a13c
00000050: b1f9 41bb 5eba 743c 6693 27bc 0c9b 933b
00000060: 2da0 02bc 65b2 1ebc 0004 7bb9 41bd 603c
00000070: 3ad7 c5bb 6b37 80bb ddd2 47bc 667c fb3b
00000080: 9e34 f6ba ef47 813b c8d0 203c b61e 903c
00000090: 0000 0000 d140 253c 9468 a2b8 b4df 8fbc
000000a0: 1c58 8f3c 8dfd a9bc 3817 4cbc 6294 0d3c
000000b0: 564e 1dbc 0000 0000 461c 6b3c ec45 953c
000000c0: 90c9 243c e2d3 823c b4a9 1fbc 9a3d ab3b
000000d0: 2f9e f4bb 3ee2 f939 e9f8 743c 10a0 3cbc
000000e0: 0000 0000 ec2e 2bbc 9426 30bc 534f 363c
000000f0: d32e 653c f8d7 2bbb a234 d1b9 8a91 0abc
00000100: faf6 3fbc c9e0 d4ba 825b 033c 9c3b 8f3c
00000110: 71fe ef3b ab54 32bc 367c a1b9 b9b1 0dbc
00000120: 2f5d 26bc cdc8 a6bb c6d5 58bc 0000 0000
00000130: 7a0b 2c3c d8c4 80bc 95e5 3a3a 6d13 963c
00000140: 44ea 11bc ff27 a9bb 2a2c 8839 c3b2 593c
00000150: 0000 0000 82ad 433c 06b8 fbbb 6451 3dbc
00000160: 9a31 223b 7d7a bf3b e121 bbb9 4a57 7f3c
00000170: 6596 f13b 9065 11bc b967 f9bb 97f8 e13b
00000180: 4080 733c 9c17 ce39 c674 323c f036 583a
00000190: 80d4 14bc 0000 0000 e1d7 d2ba fe26 b7bb
000001a0: c550 923c 22ac 713c b81a 913b 4c4d a0bc
000001b0: 14a4 463b 6cbe 1fbc 37ea 993b 7e30 7d3c
000001c0: bb52 d939 6583 113c 9046 30bc 0000 0000
000001d0: bf36 00bc 5c05 8cbc d06a 623c 7aa0 05bc
000001e0: b1b4 7bbc b698 583b 53eb 7b3c a8e9 ebbb
000001f0: e6b7 9b3b 8459 27bb 125a a83c d785 833c
00000200: ebcc 873c a6a3 8dbb 0c8f 763c 75bc 54bb
00000210: 2d2f 2b3c 5fdb 663c 9602 073c 2637 9cbc
00000220: 7ee7 04bc ada2 3e3c 2719 b13b b160 10bc
00000230: 0000 0000 f780 4ebb 6329 f4bb 18d6 153b
00000240: bb9d 47bb 8f74 dfbb 86c5 133c 952b 2cbb
00000250: dffa 03bb a1cb 783c 9383 2aba 1293 00bc
00000260: e4fd 8dbb a39a c9ba 6674 80bb 26a0 763c
00000270: 5d7e a1bb 08b5 f03b cc3c 833c 6426 bbbb
00000280: d229 353c a0fe 75bc 6100 f63b e58e 513c
00000290: 462a 8ebb 14c2 bf3a f554 6a3c 5888 afbc
000002a0: 5a88 2a3c 06b2 863c 963f 613c c18d 5d3c
000002b0: 01b6 0dbc 4907 843c 9a78 6cbc 3b83 25bb
000002c0: 33e7 1fbb 8d79 7dbc 7691 983b b8b4 8dbc
000002d0: 53be 1b3c bc13 69bc 10de b1bb 29d5 83bc
000002e0: 0b0a 8b3a 095e 193c a7ed f0bb 4eb2 b23b
000002f0: 1839 4b3c 6d7c 21bb 4b1f 063b e6c8 83bb
00000300: 4750 c7ba 4636 023c 2ec0 08bc e7b0 973c
00000310: 4490 033c 3075 3b3a fe45 9a3c 6441 673c
00000320: 6e2a dbbb 4285 43bc 2d07 d83b fa97 51bc
00000330: 291c 9f3c e048 e7bb 5435 1fbc 32f0 1fbc
00000340: 40f8 463c 428c 49bc 517c 30bb 9eba f4bb
00000350: 93b0 5eb7 6c6b 9ebb 2b25 b7bb 17a6 95bc
00000360: 9f78 603c 9b80 763c 9b89 393c c176 12bb
00000370: 278c 8abc a696 aabb 5a3a 873c 1676 913c
00000380: 5bd3 4cbb 878a 5bbc 3eb1 b33b 3bb5 83bc
00000390: 5815 7ebc 547c 88bb fca0 0dbc 7bcc a0bb
000003a0: 9c08 003c 966d ef3b e44a 713c 84fc 093c
000003b0: 2cac 513c 1e9b d63b 2e43 5fbc 019b 82bc
000003c0: 7253 92bc 8e68 e9bb d4b1 563c 2b7a 8e3c
000003d0: 0000 0000 1ff1 fdbb 6a16 bcba 8601 233c
000003e0: 6d5a 263c 8973 9aba 5342 24bb 38d7 26bb
000003f0: bb8d 19bc 4472 9fbb 2619 053a ec8c d23b

sequential/dense_1/BiasAdd/ReadVariableOp f4 [5]
0.019666772 -0.011910158 -0.010054619 0.0049807103 -0.0176727
00000000: 361c a13c d322 43bc 21bc 24bc 3a35 a33b
00000010: 57c6 90bc

sequential/dense/MatMul f4 [256, 225]
0.044813577 0.0032845347 -0.02411683 -0.036657564 0.0480865 0.0749254 0.067892 -0.08535086
0.10502861 -0.032257516 0.035132293 -0.09916096 0.064327456 -0.042546313 -0.016713576 -0.029325014
0.0072367336 0.023480678 -0.079367936 0.07165198 -0.017058937 -0.06855754 0.03742947 0.08525572
-0.040549453 0.09608078 0.09874579 -0.094769 0.09072239 0.05456727 -0.11624892 -0.028720027
0.0035993515 -0.03244321 -0.010774321 0.025836913 -0.04135689 0.027429216 -0.09855441 -0.0210326
0.090181455 0.020971553 -0.04857928 0.094300285 -0.018135747 0.062300667 0.045510456 -0.10139544
0.0101548545 0.017574923 0.0008350909 0.06511717 -0.07964764 -0.11086726 -0.07098563 0.057735566
0.023117656 0.058938853 0.08567248 -0.0044328044 0.07058549 0.04494212 0.07288204 0.025907725
0.009946639 -0.03601487 -0.09403802 0.09850844 0.05051466 -0.09073632 0.05904941 -0.10663634
0.068876 0.057395738 -0.11611787 -0.054319035 -0.042805534 -0.0911786 -0.05049378 -0.01769764
-0.116282426 0.017199151 0.0488587 0.062171586 -0.0058359457 0.06851697 -0.06780158 -0.091912314
0.088214666 -0.025749654 -0.03204545 -0.10137646 -0.010509709 -0.078857645 -0.11426774 -0.1143535
-0.104592405 0.008877493 -0.059861742 0.034934323 -0.049155332 0.030379906 -0.03603691 0.013642132
0.019658543 0.046241913 -0.054141436 -0.029207781 0.0828347 0.078996226 -0.0699318 0.008300461
0.030532306 0.024145957 -0.108175635 0.052015223 0.015127536 -0.014464685 0.00926689 -0.08518982
-0.066062085 -0.0011714002 -0.06160922 0.022774523 0.07836614 0.08575615 0.079873264 -0.064122446
0.054803465 -0.110544205 -0.087445416 -0.04585703 0.02011454 0.032563966 0.093226165 -0.045687266
-0.100083336 -0.02421467 -0.049756642 0.06798606 0.04829994 -0.074267924 0.09779774 -0.019524751
-0.0984469 -0.03658424 0.032268483 0.08407616 0.05644656 -0.036816474 -0.056302916 -0.10695236
0.041183975 0.021915356 0.016047008 -0.031985845 0.08445086 -0.0813196 0.099099986 0.062259413
0.027884245 -0.10961045 -0.09265812 -0.071216196 -0.013670628 -0.089138746 0.096721776 0.060029227
-0.04107649 -0.08073493 0.097219355 -0.11534488 0.0468527 0.044032197 0.030431263 0.09782068
0.070884205 -0.117146544 0.05952243 -0.00030566752 0.09267215 -0.006608819 0.053537637 -0.049724992
0.04182083 -0.10800522 0.0015295297 -0.10698403 0.026467722 -0.0843163 -0.107822105 -0.04344145
0.030494979 -0.049242068 -0.05597202 -0.10367821 -0.0026204747 -0.04802106 -0.08808375 0.02565653
-0.056405842 -0.092903696 -0.0742898 -0.044738308 0.106633596 -0.05667212 0.029858978 0.039890315
0.043432437 0.054684523 -0.053280726 -0.09300224 0.08639153 -0.03503901 0.0009007031 -0.016886577
-0.06724887 0.0915932 0.015786408 -0.001217961 -0.076970674 -0.106537916 -0.050673228 -0.04622929
-0.09907969 0.022046816 0.0035561393 0.08961412 -0.10301272 0.09192957 -0.059642196 0.094801955
-0.028728837 0.06583532 0.0023585525 -0.077759296 -0.074263185 -0.07263636 -0.100941345 -0.06899725
-0.057496488 0.052205812 0.06186693 0.07881584 0.07254108 -0.06019259 -0.10139236 0.028294198
-0.044426665 -0.037413545 0.041867845 0.0022457747 0.014274539 0.08129615 -0.08092729 0.050602395
00000000: 718e 373d 5941 573b a990 c5bc 3e26 16bd
00000010: 5af6 443d 7d72 993d f60a 8b3d 6fcc aebd
00000020: 3d19 d73d 7520 04bd e1e6 0f3d e714 cbbd
00000030: 1dbe 833d 0b45 2ebd e9ea 88bc 033b f0bc
00000040: 1f22 ed3b 8d5a c03c a88b a2bd 46be 923d
00000050: 2fbf 8bbc e567 8cbd a54f 193d 8d9a ae3d
00000060: 2f17 26bd 00c6 c43d 3c3b ca3d 4016 c2bd
00000070: a9cc b93d ee81 5f3d ea13 eebd 4346 ebbc
00000080: 19e3 6b3b 2ce3 04bd c786 30bc efa7 d33c
00000090: d865 29bd 3cb3 e03c e5d6 c9bd 8f4c acbc
000000a0: 0eb1 b83d 89cc ab3c 11fb 46bd 8220 c13d
000000b0: 6b91 94bc fc2e 7f3d 2c69 3a3d 6aa8 cfbd
000000c0: 8c60 263c 49f9 8f3c 00ea 5a3a 275c 853d
000000d0: 4d1e a3bd 600e e3bd ea60 91bd 217c 6c3d
000000e0: 3d61 bd3c de69 713d 0e75 af3d 0f41 91bb
000000f0: 208f 903d 3a15 383d 2e43 953d 703c d43c
00000100: 3af7 223c 5484 13bd 0197 c0bd cbbe c93d
00000110: 76e8 4e3d f7d3 b9bd cbdd 713d 2764 dabd
00000120: dc0e 8d3d cb17 6b3d 35cf edbd a37d 5ebd
00000130: db54 2fbd d9bb babd 91d2 4ebd a4fa 90bc
00000140: 7b25 eebd 3ce5 8c3c 0f20 483d a2a7 7e3d
00000150: 763b bfbb a052 8c3d 8edb 8abd 863c bcbd
00000160: e4a9 b43d f0f0 d2bc 1742 03bd 769e cfbd
00000170: ea30 2cbc 1e80 a1bd 3405 eabd 2b32 eabd
00000180: 8b34 d6bd e872 113c 9631 75bd 4b17 0f3d
00000190: 1a57 49bd 48df f83c 709b 13bd 4083 5f3c
000001a0: f40a a13c 2968 3d3d 69c3 5dbd 2845 efbc
000001b0: 3da5 a93d c6c8 a13d 6738 8fbd a8fe 073c
000001c0: e31e fa3c becd c53c 308b ddbd ea0d 553d
000001d0: 7cd9 773c 49fd 6cbc 27d4 173c 0078 aebd
000001e0: 8f4b 87bd ab89 99ba f359 7cbd a391 ba3c
000001f0: 6d7e a03d eca0 af3d 9894 a33d a152 83bd
00000200: 9979 603d 0065 e2bd 9516 b3bd 95d4 3bbd
00000210: 3fc7 a43c cb61 053d 5ced be3d 9222 3bbd
00000220: 7ef8 ccbd d85d c6bc 9fcd 4bbd 473c 8b3d
00000230: 28d6 453d c819 98bd 2e4a c83d 5ff2 9fbc
00000240: 879e c9bd 5bd9 15bd f52b 043d 1f30 ac3d
00000250: 8234 673d dfcc 16bd e39d 66bd d709 dbbd
00000260: 87b0 283d d587 b33c 0475 833c 9703 03bd
00000270: 93f4 ac3d e48a a6bd eff4 ca3d ba03 7f3d
00000280: 806d e43c 727b e0bd 8ac3 bdbd ccd9 91bd
00000290: c5fa 5fbc 608e b6bd 1116 c63d 35e1 753d
000002a0: d23f 28bd 5b58 a5bd f11a c73d f039 ecbd
000002b0: 9ee8 3f3d 1b5b 343d fc4a f93c 3556 c83d
000002c0: bd2b 913d 87ea efbd cbcd 733d 0042 a0b9
000002d0: e5ca bd3d cb8e d8bb 484a 5b3d 6fac 4bbd
000002e0: 524c 2b3d d731 ddbd 807a c83a 711a dbbd
000002f0: d6d2 d83c 06ae acbd d6d1 dcbd a9ef 31bd
00000300: 9bd0 f93c 0db2 49bd eb42 65bd 3e55 d4bd
00000310: 45bc 2bbb bbb1 44bd 4165 b4bd a52d d23c
00000320: d009 67bd 4b44 bebd 4025 98bd 843f 37bd
00000330: b762 da3d 0621 68bd d19a f43c 0764 233d
00000340: 36e6 313d e1fc 5f3d e43c 5abd f577 bebd
00000350: 0bee b03d 1185 0fbd 291d 6c3a b855 8abc
00000360: c7b9 89bd 3795 bb3d 7f52 813c fda3 9fba
00000370: cda2 9dbd 8d30 dabd bb8e 4fbd ed5a 3dbd
00000380: 4bea cabd 869b b43c 1e0e 693b 9c87 b73d
00000390: 55f8 d2bd 9245 bc3d 604b 74bd 8727 c23d
000003a0: bd58 ebbc abd4 863d f291 1a3b 4440 9fbd
000003b0: 4c17 98bd 5fc2 94bd 56ba cebd 6e4e 8dbd
000003c0: 7081 6bbd c3d5 553d 2e68 7d3d 336a a13d
000003d0: 6b90 943d 818c 76bd cca6 cfbd 3cc9 e73c
000003e0: bcf8 35bd f23e 19bd 9e7d 2b3d d92d 133b
000003f0: c2df 693c 997e a63d 35bd a5bd 7544 4f3d

sequential/dense_1/MatMul f4 [5, 256]
-0.035859853 -0.050551634 0.117222086 -0.15333004 0.07623119 0.005547986 0.016645519 -0.107349135
0.011725717 0.15208088 -0.11187644 -0.11251363 -0.00855217 -0.1080844 -0.0716869 -0.04412748
0.15004784 0.08869191 -0.15487732 0.11682345 0.110299654 0.06086324 -0.02729372 0.02085668
-0.0931644 0.035456087 -0.07756754 0.12551434 -0.013244603 -0.026470432 -0.12657034 0.06161948
-0.020519532 0.03622433 -0.03125374 0.07355977 -0.047301352 0.06722427 -0.054709896 -0.09345166
0.11582428 -0.10867006 -0.073362924 0.024444563 -0.094983205 0.096085384 0.08571936 0.14857537
0.054132342 0.08935048 -0.10644582 0.06514672 0.119681634 0.075739466 0.14201325 -0.06848534
0.0060121864 -0.13116337 -0.06214347 0.14497882 0.058854807 -0.11085872 -0.07920311 0.05337176
-0.1301688 0.05071154 -0.016742209 0.14137132 0.05397593 0.028237121 -0.05596747 -0.04531898
-0.13994874 -0.022073561 -0.13531221 0.056055754 0.027375726 -0.1428661 0.048616804 0.13267991
-0.05119367 -0.09425585 -0.14279588 0.052050382 0.12887123 0.06217502 0.030796032 -0.10831078
0.014432824 0.146222 -0.02969364 0.025918923 0.055683594 -0.15893055 0.06344691 0.050647017
-0.010582413 -0.14367454 0.13142246 0.09811604 -0.07381991 -0.0750039 -0.040639073 0.008313513
0.09283212 0.08176259 0.06449766 -0.04008201 -0.0026437887 -0.10418995 -0.07185082 0.12206873
0.094583526 -0.018532604 -0.16606788 -0.06277931 -0.09158053 -0.13552316 -0.052545827 -0.0016277295
0.059375506 -0.15707245 0.078451484 0.045371663 0.15575048 0.0854611 0.07050004 0.12299237
0.11780189 -0.16058423 0.095469445 -0.074217215 0.009539981 0.08942975 0.13738096 -0.022378746
0.11799927 0.12763092 -0.097674884 -0.059654556 0.032723248 -0.018734973 0.05815091 0.038053665
-0.049095817 -0.08579497 0.030039709 0.009217019 -0.049917225 0.14673047 -0.03982499 -0.0068574576
-0.050225466 0.027899617 0.10702487 0.079096034 -0.03032144 -0.01826411 0.1378662 0.08282709
0.054099206 -0.12429205 -0.06520162 0.041810423 -0.13483837 -0.016306045 0.16159046 -0.08687175
0.10878605 0.11683068 0.06040044 0.10551896 0.13948393 0.09085297 -0.056632116 -0.08696189
-0.16936803 -0.01722906 0.09841579 -0.0929707 -0.005321715 -0.053477623 -0.049883947 -0.13618167
-0.1317321 0.05868038 0.019017367 0.0079221865 0.082631454 -0.12157702 0.10437588 0.032644246
0.02411082 0.121243596 -0.09125849 0.013666701 -0.016507428 -0.06460064 0.05568482 0.1227205
0.07537569 -0.07004402 0.030743178 -0.0016737382 0.13921265 0.12017336 -0.10185781 -0.07865751
0.019760465 -0.1475476 -0.08598142 -0.035623092 -0.014172206 -0.13380167 0.10900771 -0.042911626
0.046267394 0.013809424 0.105005436 0.039126687 -0.10895437 -0.096027456 0.1432959 0.10682455
-0.1293223 -0.045718204 0.01585323 -0.15129715 -0.11583002 0.017928733 -0.11674544 -0.029956227
-0.031214686 0.035646062 0.007977732 0.11942989 0.032990176 0.07401093 0.028241636 -0.037496287
-0.16530092 -0.06155292 0.13312875 0.1288274 -0.045226976 -0.045064606 -0.0066499687 0.054908857
0.048361834 -0.10439104 -0.011202613 -0.10896482 -0.03350391 -0.16005592 0.05851275 0.09707232
00000000: c8e1 12bd 3b0f 4fbd 2212 f03d 8d02 1dbe
00000010: 191f 9c3d e1cb b53b 2f5c 883c ddd9 dbbd
00000020: 391d 403c 17bb 1b3e 7a1f e5bd 8c6d e6bd
00000030: 671e 0cbc 5b5b ddbd 95d0 92bd 04bf 34bd
00000040: 24a6 193e 1ba4 b53d 2998 1ebe 2241 ef3d
00000050: c9e4 e13d bc4b 793d 1497 dfbc a1db aa3c
00000060: facc bebd 673a 113d bbdb 9ebd d586 003e
00000070: e4ff 58bc 85d8 d8bc a89b 01be b564 7c3d
00000080: 9418 a8bc f75f 143d ec03 00bd 81a6 963d
00000090: 10bf 41bd e1ac 893d 7c17 60bd 9563 bfbd
000000a0: 4835 ed3d 698e debd 4d3f 96bd f73f c83c
000000b0: 8e86 c2bd 6ac8 c43d a28d af3d 2424 183e
000000c0: e0b9 5d3d 62fd b63d 4400 dabd a56b 853d
000000d0: a51b f53d 4b1d 9b3d ec6b 113e 0b42 8cbd
000000e0: e001 c53b b14f 06be 278a 7ebd 5475 143e
000000f0: bd11 713d e609 e3bd 3d35 a2bd 599c 5a3d
00000100: f84a 05be e7b6 4f3d f526 89bc a5c3 103e
00000110: dd15 5d3d 8951 e73c 253e 65bd 65a0 39bd
00000120: b94e 0fbe 9dd3 b4bc 498f 0abe b89a 653d
00000130: 0f43 e03c 7e4b 12be 6a22 473d 3edd 073e
00000140: 74b0 51bd 3609 c1bd 1539 12be c832 553d
00000150: d2f6 033e 3cab 7e3d f647 fc3c 0bd2 ddbd
00000160: a777 6c3c 38bb 153e 1440 f3bc ec53 d43c
00000170: 7b14 643d b1be 22be 74f0 813d 3f73 4f3d
00000180: db61 2dbc 6b1f 13be 9c93 063e 10f1 c83d
00000190: e52e 97bd a59b 99bd 2875 26bd 6735 083c
000001a0: c41e be3d 2573 a73d 5917 843d 092d 24bd
000001b0: 6a43 2dbb 8a61 d5bd 8626 93bd 2cff f93d
000001c0: 02b5 c13d b0d1 97bc b30d 2abe 7092 80bd
000001d0: 938e bbbd 95c6 0abe 4b3a 57bd 8a59 d5ba
000001e0: bb33 733d 9ad7 20be 2cab a03d a3d7 393d
000001f0: 0e7d 1f3e 3b06 af3d 5362 903d 6ce3 fb3d
00000200: 1e42 f13d 3170 24be 7c85 c33d 32ff 97bd
00000210: 954d 1c3c f226 b73d 98ad 0c3e a253 b7bc
00000220: 9aa9 f13d aeb1 023e c509 c8bd 5658 74bd
00000230: d008 063d 167a 99bc a62f 6e3d 29de 1b3d
00000240: b218 49bd 46b5 afbd d615 f63c fb02 173c
00000250: 0176 4cbd 8340 163e 871f 23bd 86b4 e0bb
00000260: 38b9 4dbd bd8d e43c db2f db3d 1afd a13d
00000270: ab64 f8bc 9d9e 95bc cc2c 0d3e 40a1 a93d
00000280: 2197 5d3d d58c febd 6d88 85bd 6841 2b3d
00000290: 1213 0abe 4194 85bc f877 253e d1e9 b1bd
000002a0: 38cb de3d ec44 ef3d 7466 773d 531a d83d
000002b0: e0d4 0e3e 1f11 ba3d 14f7 67bd 1319 b2bd
000002c0: d06e 2dbe f523 8dbc 388e c93d 6c67 bebd
000002d0: c861 aebb 5a0b 5bbd 1c53 4cbd 3573 0bbe
000002e0: c8e4 06be d75a 703d 4fca 9b3c 0fcc 013c
000002f0: ae3a a93d 5ffd f8bd 05c3 d53d f9b5 053d
00000300: 0e84 c53c 904e f83d bbe5 babd 4cea 5f3c
00000310: 963a 87bc 574d 84bd c415 643d e354 fb3d
00000320: 925e 9a3d 3d73 8fbd 1ed9 fb3c 5661 dbba
00000330: c38d 0e3e 731d f63d d49a d0bd 3017 a1bd
00000340: b3e0 a13c b816 17be 0717 b0bd 85e9 11bd
00000350: 8a32 68bc 4e03 09be 6f3f df3d 1ac4 2fbd
00000360: e182 3d3d ec40 623c 170d d73d 4e43 203d
00000370: 7823 dfbd 0baa c4bd 29bc 123e d4c6 da3d
00000380: 116d 04be 0343 3bbd a2de 813c a4ed 1abe
00000390: 4a38 edbd 47df 923c 3c18 efbd c366 f5bc
000003a0: f1b5 ffbc 9b01 123d 09b5 023c a897 f43d
000003b0: b520 073d 0b93 973d 015b e73c b595 19bd
000003c0: a544 29be ea1e 7cbd e752 083e 54eb 033e
000003d0: ec3f 39bd aa95 38bd fbe7 d9bb 1ce8 603d
000003e0: 0f17 463d f8ca d5bd 2a8b 37bc f328 dfbd
000003f0: 653b 09bd b3e5 23be 11ab 6f3d dacd c63d
