Jupyter-notebook/Machine learning/indian sign language detection model/models/tf_lite_quant_model.tflite (tflite, 100216 bytes, 10 tensors)

sequential/dense_1/BiasAdd/ReadVariableOp f4 [5]
00000000: 361c a13c d322 43bc 21bc 24bc 3a35 a33b
00000010: 57c6 90bc
0.019666772 -0.011910158 -0.010054619 0.0049807103 -0.0176727

sequential/dense/BiasAdd/ReadVariableOp f4 [256]
00000000: 4c25 b7bb 9860 a83b 3181 c4bb e03e a53a
00000010: 0c7d 383c 06c1 593c 0817 eebb 89b3 83bc
00000020: 99fa 10bc 8204 9c3c 98c1 13bc 2eab ecbb
00000030: 3253 dfbb 2614 26bc 0267 5ebb f883 3fbb
00000040: 4079 593c 205c 0539 ce5a aebb e85d a13c
00000050: b1f9 41bb 5eba 743c 6693 27bc 0c9b 933b
00000060: 2da0 02bc 65b2 1ebc 0004 7bb9 41bd 603c
00000070: 3ad7 c5bb 6b37 80bb ddd2 47bc 667c fb3b
00000080: 9e34 f6ba ef47 813b c8d0 203c b61e 903c
00000090: 0000 0000 d140 253c 9468 a2b8 b4df 8fbc
000000a0: 1c58 8f3c 8dfd a9bc 3817 4cbc 6294 0d3c
000000b0: 564e 1dbc 0000 0000 461c 6b3c ec45 953c
000000c0: 90c9 243c e2d3 823c b4a9 1fbc 9a3d ab3b
000000d0: 2f9e f4bb 3ee2 f939 e9f8 743c 10a0 3cbc
000000e0: 0000 0000 ec2e 2bbc 9426 30bc 534f 363c
000000f0: d32e 653c f8d7 2bbb a234 d1b9 8a91 0abc
00000100: faf6 3fbc c9e0 d4ba 825b 033c 9c3b 8f3c
00000110: 71fe ef3b ab54 32bc 367c a1b9 b9b1 0dbc
00000120: 2f5d 26bc cdc8 a6bb c6d5 58bc 0000 0000
00000130: 7a0b 2c3c d8c4 80bc 95e5 3a3a 6d13 963c
00000140: 44ea 11bc ff27 a9bb 2a2c 8839 c3b2 593c
00000150: 0000 0000 82ad 433c 06b8 fbbb 6451 3dbc
00000160: 9a31 223b 7d7a bf3b e121 bbb9 4a57 7f3c
00000170: 6596 f13b 9065 11bc b967 f9bb 97f8 e13b
00000180: 4080 733c 9c17 ce39 c674 323c f036 583a
00000190: 80d4 14bc 0000 0000 e1d7 d2ba fe26 b7bb
000001a0: c550 923c 22ac 713c b81a 913b 4c4d a0bc
000001b0: 14a4 463b 6cbe 1fbc 37ea 993b 7e30 7d3c
000001c0: bb52 d939 6583 113c 9046 30bc 0000 0000
000001d0: bf36 00bc 5c05 8cbc d06a 623c 7aa0 05bc
000001e0: b1b4 7bbc b698 583b 53eb 7b3c a8e9 ebbb
000001f0: e6b7 9b3b 8459 27bb 125a a83c d785 833c
00000200: ebcc 873c a6a3 8dbb 0c8f 763c 75bc 54bb
00000210: 2d2f 2b3c 5fdb 663c 9602 073c 2637 9cbc
00000220: 7ee7 04bc ada2 3e3c 2719 b13b b160 10bc
00000230: 0000 0000 f780 4ebb 6329 f4bb 18d6 153b
00000240: bb9d 47bb 8f74 dfbb 86c5 133c 952b 2cbb
00000250: dffa 03bb a1cb 783c 9383 2aba 1293 00bc
00000260: e4fd 8dbb a39a c9ba 6674 80bb 26a0 763c
00000270: 5d7e a1bb 08b5 f03b cc3c 833c 6426 bbbb
00000280: d229 353c a0fe 75bc 6100 f63b e58e 513c
00000290: 462a 8ebb 14c2 bf3a f554 6a3c 5888 afbc
000002a0: 5a88 2a3c 06b2 863c 963f 613c c18d 5d3c
000002b0: 01b6 0dbc 4907 843c 9a78 6cbc 3b83 25bb
000002c0: 33e7 1fbb 8d79 7dbc 7691 983b b8b4 8dbc
000002d0: 53be 1b3c bc13 69bc 10de b1bb 29d5 83bc
000002e0: 0b0a 8b3a 095e 193c a7ed f0bb 4eb2 b23b
000002f0: 1839 4b3c 6d7c 21bb 4b1f 063b e6c8 83bb
00000300: 4750 c7ba 4636 023c 2ec0 08bc e7b0 973c
00000310: 4490 033c 3075 3b3a fe45 9a3c 6441 673c
00000320: 6e2a dbbb 4285 43bc 2d07 d83b fa97 51bc
00000330: 291c 9f3c e048 e7bb 5435 1fbc 32f0 1fbc
00000340: 40f8 463c 428c 49bc 517c 30bb 9eba f4bb
00000350: 93b0 5eb7 6c6b 9ebb 2b25 b7bb 17a6 95bc
00000360: 9f78 603c 9b80 763c 9b89 393c c176 12bb
00000370: 278c 8abc a696 aabb 5a3a 873c 1676 913c
00000380: 5bd3 4cbb 878a 5bbc 3eb1 b33b 3bb5 83bc
00000390: 5815 7ebc 547c 88bb fca0 0dbc 7bcc a0bb
000003a0: 9c08 003c 966d ef3b e44a 713c 84fc 093c
000003b0: 2cac 513c 1e9b d63b 2e43 5fbc 019b 82bc
000003c0: 7253 92bc 8e68 e9bb d4b1 563c 2b7a 8e3c
000003d0: 0000 0000 1ff1 fdbb 6a16 bcba 8601 233c
000003e0: 6d5a 263c 8973 9aba 5342 24bb 38d7 26bb
000003f0: bb8d 19bc 4472 9fbb 2619 053a ec8c d23b
-0.005589163 0.005138468 -0.005996846 0.0012607239 0.011260282 0.013290649 -0.007265929 -0.01607682
-0.00884881 0.019045118 -0.009018324 -0.0072225546 -0.0068153376 -0.01013664 -0.003393591 -0.0029222947
0.013273537 0.00012718188 -0.0053208834 0.019698098 -0.002959829 0.0149370115 -0.010228014 0.004504567
-0.007972759 -0.009686087 -0.00023938715 0.013716997 -0.00603762 -0.0039128563 -0.01219627 0.0076747416
-0.0018783992 0.0039453427 0.009815402 0.01759277 0.0 0.010086254 -7.744241e-05 -0.017562725
0.017498069 -0.020750785 -0.012456708 0.008641334 -0.009601196 0.0 0.014350003 0.018221818
0.010057822 0.015970174 -0.00974505 0.0052258493 -0.007465146 0.00047661545 0.014951923 -0.011512771
0.0 -0.010448199 -0.010751385 0.011127311 0.013988215 -0.0026221257 -0.000399028 -0.008457551
-0.011716599 -0.0016241308 0.008017423 0.017484479 0.007324033 -0.010884444 -0.00030800857 -0.008648329
-0.010154053 -0.0050898553 -0.013234561 0.0 0.010500783 -0.015718862 0.00071295473 0.01831981
-0.008905951 -0.0051622386 0.00025972846 0.013287249 0.0 0.011943223 -0.0076818494 -0.01155505
0.0024748803 0.005843459 -0.0003569266 0.015584776 0.0073726648 -0.008874312 -0.0076112417 0.0068960893
0.01486212 0.00039308972 0.010892099 0.00082479324 -0.009083867 0.0 -0.0016086065 -0.005589365
0.01786078 0.014750512 0.004428234 -0.019568108 0.00303102 -0.00974999 0.00469711 0.015453456
0.00041451104 0.008881425 -0.010759011 0.0 -0.0078255525 -0.0170924 0.013819411 -0.008155936
-0.015362904 0.0033050007 0.01537593 -0.007199485 0.004752147 -0.0025535533 0.020550761 0.01605503
0.016577205 -0.004322487 0.0150487535 -0.0032460962 0.010448259 0.014090388 0.008240363 -0.019069266
-0.008111833 0.011635465 0.0054046097 -0.0088121155 0.0 -0.0031509975 -0.0074512227 0.0022863206
-0.0030459005 -0.006819315 0.009019261 -0.0026271094 -0.0020138544 0.015185268 -0.00065045914 -0.007847564
-0.0043332446 -0.0015381168 -0.003920126 0.015052831 -0.0049283938 0.0073457994 0.016020201 -0.0057113636
0.011057334 -0.015014321 0.0075073694 0.012790416 -0.0043385355 0.0014629983 0.014302482 -0.021427318
0.010408485 0.01644231 0.01374807 0.013522566 -0.00864935 0.016116755 -0.0144330505 -0.0025255221
-0.002439928 -0.0154708745 0.004656012 -0.017298087 0.009505826 -0.014225896 -0.0054280832 -0.016092854
0.0010607851 0.009360799 -0.007352549 0.0054533845 0.012403749 -0.0024640814 0.002046543 -0.0040217517
-0.001520642 0.00794751 -0.0083466 0.01851697 0.008030001 0.0007150946 0.018832203 0.014114711
-0.0066884076 -0.011933627 0.0065926523 -0.012792582 0.019422607 -0.007058248 -0.009717304 -0.009761857
0.012144148 -0.0123015065 -0.0026929567 -0.0074685356 -1.3273343e-05 -0.004834583 -0.0055891476 -0.018267674
0.013700633 0.01504531 0.011324312 -0.0022348615 -0.016912533 -0.005205947 0.016507316 0.017756503
-0.0031253907 -0.013399727 0.0054837754 -0.016077628 -0.015508018 -0.0041652117 -0.008644339 -0.0049071885
0.007814553 0.007306765 0.014727328 0.008422021 0.012797397 0.006549253 -0.013626857 -0.015943052
-0.017862055 -0.0071230596 0.013103921 0.017392239 0.0 -0.007749691 -0.0014349942 0.009949094
0.010153395 -0.00117837 -0.0025063946 -0.002545787 -0.00937217 -0.0048659164 0.0005077295 0.0064254906

sequential/conv2d/BiasAdd/ReadVariableOp f4 [65]
00000000: c656 583b 70bf 39bb 330f a83c df62 b53b
00000010: d2e3 a73c 6cfd 173c 8057 aa3c db41 bc3c
00000020: 7b0a 13bc d545 1c3c 3f86 773c a3c7 283c
00000030: 08e0 d3bb 9642 1a3b e80b 11bb 06aa f6ba
00000040: 9626 90bc 6e5a 9b3c 7198 093c 7191 ddba
00000050: 0118 8c3b 929c 75bc 635a 1b3c 9e0d eb3b
00000060: 24cb 383c f3dd 8b3c dcb1 963b 7b82 aaba
00000070: 02b0 c03b 69a6 893c 0371 f8ba b059 043c
00000080: 60f7 a83c 9067 903c 4aec 6d3c 6e76 263c
00000090: a96e b33b 1ce6 9e3b ddbb d23b 16fd 91bc
000000a0: 9952 2f3a 360c 143c c803 a43c 07fd f93b
000000b0: 8959 a43c d115 8c39 a01b 9e3c 7bb8 4dbc
000000c0: 9fc5 413c 0503 2ebc c3ec 96bb 18a6 8d3c
000000d0: b0b3 dabb 4d82 363c d45f 043c 958d 093c
000000e0: c676 ddbb 37fa b53c 8ba8 9f3c 97df b63c
000000f0: 9662 82bc 66da b3bb 59c3 1c3c 542e 37bc
00000100: 1a18 833a
0.0033010705 -0.0028342865 0.02051506 0.005535468 0.020494375 0.009276729 0.020793676 0.022980621
-0.008974667 0.009538134 0.01510769 0.010301503 -0.0064659156 0.0023538223 -0.002213234 -0.0018818981
-0.017596524 0.018964019 0.008398161 -0.0016904307 0.0042753224 -0.014990943 0.009481999 0.007173254
0.011278901 0.017073607 0.004598839 -0.0013008857 0.0058803568 0.016802983 -0.0018954579 0.008078024
0.02062577 0.017627507 0.014521668 0.010160072 0.005475838 0.0048492085 0.0064310865 -0.017820876
0.0006688028 0.009036114 0.020021334 0.00762904 0.020062225 0.00026719135 0.019300282 -0.012556191
0.011826902 -0.010620837 -0.004605861 0.017291114 -0.0066742525 0.011139465 0.008079488 0.008395572
-0.0067585437 0.022214038 0.019489547 0.022323413 -0.01591615 -0.0054886816 0.009568059 -0.011180479
0.001000169

sequential/conv2d_1/BiasAdd/ReadVariableOp f4 [40]
00000000: ce01 afbb 4333 0ebc 7aef 593c c452 a2bb
00000010: e857 25ba 6d25 8abc df6c b33c 4f2b 0abc
00000020: 6fbc 2fbc 7c03 973c 6cbc fabb 3432 9f3c
00000030: 1f9f af3c fe9e 563c 3d6d ac3c 94b0 ab3a
00000040: 5797 8c3c 5d8c eabb f815 95bb 3776 8e3c
00000050: 2e40 b23c 7dbb fe3b a579 cabb b85a 4abc
00000060: 026a 2fbc 8085 0ebc d8f7 643b 4a39 03bc
00000070: 9851 8d3c c138 973b a7cb ae3b e6ba 7f3c
00000080: 93d3 913c 65ab ae3c ef59 793c 6f40 6c3c
00000090: f4fc 843c e946 fc3b f212 46bc cfa2 c9bb
-0.0053407913 -0.008679214 0.013301725 -0.004953714 -0.00063073495 -0.01686355 0.0219025 -0.008433177
-0.010726078 0.018434279 -0.007651856 0.019433118 0.02143818 0.01309943 0.021048183 0.0013098889
0.017162008 -0.007157846 -0.004549738 0.017390354 0.021759119 0.007773815 -0.006179052 -0.012350731
-0.010706427 -0.008698821 0.0034937765 -0.008009264 0.017250821 0.00461492 0.005334336 0.015608525
0.017801082 0.021321962 0.015219196 0.014419659 0.016233899 0.007698883 -0.012089478 -0.0061534415

sequential/conv2d_2/BiasAdd/ReadVariableOp f4 [25]
00000000: 0f7e 72bb 28f6 17bc 8c0d 50bc 94bb 48bc
00000010: a5fa 443c ed33 17bb 03e8 1ebc aafb 573c
00000020: e8dd b5bb 7d1c a63c 45d7 943c 3ba8 4d3b
00000030: 70d5 923c 27cc f8bb f277 8b3c 7523 553b
00000040: 188c 943c 1d72 99bc 1567 913c c7db 1b3c
00000050: cd5e 6a3b 9755 8abb 02fd 1cbc 28ef b93a
00000060: dd3c d33b
-0.0037001406 -0.009274997 -0.012698542 -0.012251753 0.012022649 -0.0023071722 -0.009698871 0.01318256
-0.005550135 0.020277256 0.018169055 0.003138079 0.01792404 -0.007592696 0.017024968 0.0032522355
0.018133208 -0.018731171 0.017749349 0.009512848 0.0035762072 -0.004221629 -0.009581806 0.0014185654
0.0064464645

sequential/conv2d/Conv2D f4 [65, 3, 3, 1]
00000000: 1bca 8bbd 71d4 73bd 699a 8a3c ddb8 65bc
00000010: 3860 ddbd bc7c 233d 189c dabb ef7e c4bd
00000020: 0902 833d dc9e 8c3c 9cf2 0dbd ade2 0f3c
00000030: 49de b6bd 1f3f eebb 4eb0 e5bd b0c3 0abc
00000040: 24f9 ad3d 227e 23bd 2f17 69bb 3b7d 223c
00000050: 6ea2 8f3d aa56 b13c bcc6 1ebd 9248 9e3d
00000060: 8f2f 40ba daf2 403d 9790 9a3d 0af1 a33d
00000070: 4de1 d8bd 742b b9bd bc8c 3dbd 5639 0f3c
00000080: 04b3 613d d101 efbd 9166 1c3c a2c1 2cbd
00000090: 28e0 49bd 2807 c63d 7389 753d 9f4c 9d3d
000000a0: a1ba 093d b6bd b7bc 85a4 0dbd 7d59 c73d
000000b0: 82ec 94bd 7f98 98bd 8c3f 1fbc 4963 253d
000000c0: 15d5 24bd db2e 81bd fb2d 33bc 2145 e0bd
000000d0: c062 11bd 4c5c 92bd 2537 a83d 97c1 2abc
000000e0: b83c 2d3c 0383 8c3c d0a0 583d 506d 06bd
000000f0: 2385 bf3d ba71 b4bc 44fa 24bd 9fec 743d
00000100: 867b e23d e0b8 86bc 65c2 583d 79bd 9b3d
00000110: 9a04 403c a038 ba3d 3102 a13d e3d8 dabc
00000120: c9c7 84bc af7f 71bd 9dc0 87bd 48d5 28bd
00000130: b5cd aabd c2b0 f63c 1a09 96bd c0be a43b
00000140: fb37 ba3d 6963 1a3d 233a 9fba c6c7 12bc
00000150: e731 953d cfe9 7cbd 0768 e5bd f835 6fbd
00000160: f936 c5bd ef6e 18bd b006 b73c d01b 2fbc
00000170: 6a04 b13d c6ca 993b 8a0e 5b3d b553 ef3c
00000180: 4bbe d53d 8827 d63d 25af b13d ff16 cdbc
00000190: 42f4 4cbd 1c35 bbbb 3f2c e2bd 4fb1 8bbc
000001a0: 40ca 8abc 877d a13b 5ba1 e8bd 7c18 35bd
000001b0: 20a9 83bd e1ed 963d edf1 3ebd 9d35 26bd
000001c0: f9d6 9bbd ee0f b3bd d811 e83c 0ada 833c
000001d0: ec0d 8b3c 461e fe3c c525 cbbc fe1c 163c
000001e0: 013d 8a3c f0a6 8f3d 9729 ab3d e898 c6bc
000001f0: c6c5 67bd 43de 09bd de30 62bd 83a0 78bd
00000200: 36f3 ab3d 4847 8bbd 9359 f0bc 8e8d f43c
00000210: ecfe 723d 208a 58bc 1533 82bd a72a cbbd
00000220: 69fe 47bd da0a 4d3d b9d9 993d 7c00 02bd
00000230: 8260 5ebd 4793 63bd 2483 8c3d 9a86 123b
00000240: aa84 b6bd 234f babb e6cb 653d f970 3b3d
00000250: 6c01 8b3d c8ff a0bd 481b a4bb 95d9 8b3d
00000260: 58a8 c9bd a39d e63c 12d2 c43d 2da9 a2bd
00000270: 15c5 043d 6073 613d d6f6 b3b9 1f71 aa3d
00000280: aefe a13d 3f3f 833d 92bc bdbc 4658 dcbd
00000290: b591 c93d d331 5dbd 868e 4c3d 2109 4f3c
000002a0: ea21 41bd b12c 9ebd 92a0 173d 7133 3fbd
000002b0: 8402 1a3d 77e3 cc3c 775c acbd a606 193d
000002c0: 950d bc3d d041 adbb 69a3 05bd 23b1 473c
000002d0: f42b c53b 852f 653d 4c21 69bd 06f2 b5bd
000002e0: f6d1 e1bd e322 e7bd 2272 09bc 843a 9e3d
000002f0: 15d1 ae3c 2d4f abbd 74a2 933d d0b9 b73d
00000300: 2610 843d c029 193b c2d5 ce3d 2b00 69bd
00000310: 77d2 6fbd b39f abbd e4c7 aabd a8d9 933d
00000320: 4e51 9dbd 8e52 ecbd d760 94bd 83f6 05bc
00000330: aae3 e8bd 681e e7bd 4da1 49bd e7d3 253d
00000340: d4d9 4dbc 6605 6ebc 27ef 05bd a267 013c
00000350: 624b 73bd 8b76 2bbd 7139 db3b 8fa1 1dbd
00000360: e916 33bd d3a5 b7bd e68b c13d fe52 84bd
00000370: 5d6a 8c3c 64fd 29bd 1538 e3bd 55ce 6c3a
00000380: 78c9 bc3c 0464 28bd fd9e 043d 74db 9bbd
00000390: 50e0 8c3d bc41 8ebd 1545 2b3d a81f 9e3c
000003a0: 2667 a33d dbff a4bd f4df ae3d ad73 583c
000003b0: e1ef d5bd b121 22bd 131d 80bb 575a 843d
000003c0: 8908 5ebd 290b 53bd 1b57 eabd e3d8 51bd
000003d0: 5dc7 06bd 0af6 7ebd 08c5 943d 97da 983b
000003e0: 8b97 19bd e7f4 75bb cc01 c8bd d841 42bd
000003f0: ba23 733a 6718 39bd cfaf 153d b8d6 bdbd
-0.06825658 -0.05952877 0.016919332 -0.014021126 -0.10809368 0.039913878 -0.00667144 -0.09594523
0.063968726 0.017165594 -0.0346552 0.008782071 -0.08929116 -0.007270708 -0.11215268 -0.008469507
0.084947854 -0.03991521 -0.0035566797 0.009917553 0.07013403 0.02164777 -0.038763747 0.077286854
-0.00073313055 0.0471066 0.075471096 0.08004959 -0.10589848 -0.09041491 -0.046276793 0.008741697
0.055102363 -0.11670268 0.009545938 -0.04217685 -0.049286038 0.09669334 0.059945535 0.0768063
0.03362525 -0.022429328 -0.034580726 0.097338654 -0.07271673 -0.07450961 -0.009719741 0.04037789
-0.040242273 -0.06307765 -0.010936256 -0.10950685 -0.035494566 -0.071465105 0.08213643 -0.010422132
0.0105735585 0.017152315 0.052887738 -0.032819092 0.09351566 -0.022026885 -0.040277734 0.059795972
0.110587165 -0.016445577 0.052919764 0.076044984 0.011719847 0.090928316 0.07861746 -0.026714748
-0.016208546 -0.05895966 -0.06628535 -0.041219026 -0.08340017 0.030113582 -0.07325955 0.005027622
0.09092709 0.03769246 -0.0012148063 -0.0089587625 0.07284909 -0.061746415 -0.11201482 -0.058401078
-0.09629626 -0.03721517 0.022342056 -0.010687783 0.0864342 0.004693362 0.053480662 0.02921472
0.10436686 0.10456759 0.08675984 -0.02503538 -0.05003763 -0.0057131182 -0.110435955 -0.01705232
-0.016942143 0.004928294 -0.11358901 -0.044212803 -0.064287424 0.073695906 -0.046617437 -0.040578473
-0.07609362 -0.08743273 0.028328821 0.01609518 0.016974412 0.031020295 -0.024798283 0.009162186
0.016874792 0.07014263 0.08357542 -0.024242833 -0.056585096 -0.03365923 -0.055222385 -0.06069995
0.08395998 -0.06800705 -0.029339587 0.029852655 0.059325144 -0.013216525 -0.063573994 -0.09920245
-0.04882661 0.050059177 0.075122304 -0.031738743 -0.054291256 -0.055560376 0.068609506 0.002235806
-0.089120224 -0.0056857034 0.056102656 0.045762036 0.067873806 -0.078612864 -0.005008135 0.0682861
-0.09846562 0.028151339 0.0961038 -0.07942424 0.032414515 0.05504167 -0.00034325448 0.083223574
0.079099044 0.064085476 -0.023161206 -0.10759024 0.098422445 -0.054002594 0.04994061 0.012636454
-0.047151484 -0.07723368 0.037018366 -0.046679918 0.037600055 0.025010807 -0.08416074 0.037359856
0.09182278 -0.0052873865 -0.032626543 0.012188229 0.0060172025 0.05595352 -0.05691652 -0.08884053
-0.11026375 -0.11285951 -0.008389028 0.07726005 0.021339932 -0.08364711 0.0720872 0.08970988
0.064483926 0.0023370832 0.10099365 -0.056884926 -0.058550324 -0.083800696 -0.08338907 0.07219249
-0.07681523 -0.115391836 -0.07245033 -0.008176449 -0.113715485 -0.112850964 -0.049226094 0.04048529
-0.012564141 -0.014527654 -0.032698777 0.007898243 -0.059398063 -0.0418611 0.006690197 -0.038484152
-0.04372302 -0.08967175 0.09450512 -0.06461142 0.017140562 -0.041501418 -0.11094681 0.00090334314
0.023045287 -0.041111007 0.032378186 -0.07610217 0.06878722 -0.069461316 0.04181393 0.019302204
0.079786584 -0.08056613 0.085388094 0.013211173 -0.10446144 -0.039582912 -0.003909716 0.064625435
-0.05420736 -0.051524315 -0.11442395 -0.05123223 -0.03290497 -0.06224636 0.07264143 0.00466473
-0.03749804 -0.0037530006 -0.09765968 -0.047426075 0.0009275038 -0.045189288 0.036544617 -0.0926947

sequential/conv2d_1/Conv2D i1 [40, 3, 3, 65]
00000000: dfee 5b5f 6114 ec6f bb36 57ca c42c dcd5
00000010: 5ed3 dfc6 e4c3 ed2a 51aa 77bc bfd9 698f
00000020: 9aeb 45ce cdff 0fd7 1209 d8fe 2bcc ef32
00000030: 44f0 434a 5f33 7ac4 eb21 ab1a eafd 362f
00000040: 1308 fde9 c530 e67f 2533 bb9e 4350 c1e6
00000050: 0230 e8de b7f3 526b a401 68bf 6817 fcd8
00000060: 2301 b9d8 f1b1 5d0f 04d7 bd0a b740 9819
00000070: ff23 4fd5 5827 7fef 1946 e328 3a94 5b35
00000080: d043 a81d e743 d2a5 b265 2701 eba8 19f0
00000090: 5cdf d34f 04b5 eeb2 efd3 9dbd a226 1ddf
000000a0: a12d cbdc dfea 595f 0fa3 2250 59c7 3a99
000000b0: 13e9 15c7 9a52 3abd 9d9f 8c6b 6262 ae31
000000c0: 1215 a363 f4ae 25d3 17b7 d4d0 3dc5 a949
000000d0: 44b8 6c21 c9c6 2b30 e12e e9ac adce 081f
000000e0: 620e 47d7 fef1 bf7d cc3a d53d 3fa7 06d5
000000f0: 12e8 ee00 f831 abd1 e070 b11d f367 2f44
-33 -18 91 95 97 20 -20 111
-69 54 87 -54 -60 44 -36 -43
94 -45 -33 -58 -28 -61 -19 42
81 -86 119 -68 -65 -39 105 -113
-102 -21 69 -50 -51 -1 15 -41
18 9 -40 -2 43 -52 -17 50
68 -16 67 74 95 51 122 -60
-21 33 -85 26 -22 -3 54 47
19 8 -3 -23 -59 48 -26 127
37 51 -69 -98 67 80 -63 -26
2 48 -24 -34 -73 -13 82 107
-92 1 104 -65 104 23 -4 -40
35 1 -71 -40 -15 -79 93 15
4 -41 -67 10 -73 64 -104 25
-1 35 79 -43 88 39 127 -17
25 70 -29 40 58 -108 91 53
-48 67 -88 29 -25 67 -46 -91
-78 101 39 1 -21 -88 25 -16
92 -33 -45 79 4 -75 -18 -78
-17 -45 -99 -67 -94 38 29 -33
-95 45 -53 -36 -33 -22 89 95
15 -93 34 80 89 -57 58 -103
19 -23 21 -57 -102 82 58 -67
-99 -97 -116 107 98 98 -82 49
18 21 -93 99 -12 -82 37 -45
23 -73 -44 -48 61 -59 -87 73
68 -72 108 33 -55 -58 43 48
-31 46 -23 -84 -83 -50 8 31
98 14 71 -41 -2 -15 -65 125
-52 58 -43 61 63 -89 6 -43
18 -24 -18 0 -8 49 -85 -47
-32 112 -79 29 -13 103 47 68

sequential/conv2d_2/Conv2D i1 [25, 3, 3, 40]
00000000: 76c7 9c53 75a4 97ac 3cd6 3e66 c1b8 0427
00000010: 6f94 3ade a071 6acf ed60 53e2 f26c 53d5
00000020: e015 3b6d 2aa7 1005 79bd 0000 5a92 9599
00000030: 162c 3cb6 0040 b22e 1d4b 2fbf f3f3 e6c0
00000040: 313a 2e61 d7d8 1e20 e1e2 c4a5 f6b0 4fe6
00000050: 4da5 e0ae f586 b48b 03d8 893f 28b1 efd8
00000060: eb4c 0aab 9709 8d2d cc2e 2d57 7e4b ef1b
00000070: 2e5e f168 b16f b29c 18f5 6f2e 47ef 4e9f
00000080: 5dd3 e82d 9314 fb1d a528 d342 cb6a 70b6
00000090: da79 ff47 093b 665d 76b8 6eab f8b4 2a2b
000000a0: 3bff 8e95 8e08 ab8b fe11 a967 53fc a755
000000b0: bd93 2d6d ac6b edf7 eb3e 040c 5c9e 569d
000000c0: df2a f461 a1a6 9593 39cf 68be abdf 42c5
000000d0: 610a c6c8 dc92 5cb1 bdda 0a05 6708 c3be
000000e0: ec5b 42ab 06c6 6ab8 d726 d5b2 59e9 3e68
000000f0: 44df 5a5d 4cd3 3f2b 58ae 65ad 4ab4 67f6
118 -57 -100 83 117 -92 -105 -84
60 -42 62 102 -63 -72 4 39
111 -108 58 -34 -96 113 106 -49
-19 96 83 -30 -14 108 83 -43
-32 21 59 109 42 -89 16 5
121 -67 0 0 90 -110 -107 -103
22 44 60 -74 0 64 -78 46
29 75 47 -65 -13 -13 -26 -64
49 58 46 97 -41 -40 30 32
-31 -30 -60 -91 -10 -80 79 -26
77 -91 -32 -82 -11 -122 -76 -117
3 -40 -119 63 40 -79 -17 -40
-21 76 10 -85 -105 9 -115 45
-52 46 45 87 126 75 -17 27
46 94 -15 104 -79 111 -78 -100
24 -11 111 46 71 -17 78 -97
93 -45 -24 45 -109 20 -5 29
-91 40 -45 66 -53 106 112 -74
-38 121 -1 71 9 59 102 93
118 -72 110 -85 -8 -76 42 43
59 -1 -114 -107 -114 8 -85 -117
-2 17 -87 103 83 -4 -89 85
-67 -109 45 109 -84 107 -19 -9
-21 62 4 12 92 -98 86 -99
-33 42 -12 97 -95 -90 -107 -109
57 -49 104 -66 -85 -33 66 -59
97 10 -58 -56 -36 -110 92 -79
-67 -38 10 5 103 8 -61 -66
-20 91 66 -85 6 -58 106 -72
-41 38 -43 -78 89 -23 62 104
68 -33 90 93 76 -45 63 43
88 -82 101 -83 74 -76 103 -10

sequential/dense/MatMul i1 [256, 225] scale=0.0010676464 zero_point=0
00000000: 2a03 e9de 2d46 40b0 62e2 21a3 3cd8 f0e5
00000010: 0716 b643 f0c0 2350 da5a 5ca7 5533 93e5
00000020: 03e2 f618 d91a a4ec 5414 d258 ef3a 2ba1
00000030: 0a10 013d b598 be36 1637 50fc 422a 4418
00000040: 09de a85c 2fab 379c 4136 93cd d8ab d1ef
00000050: 9310 2e3a fb40 c0aa 53e8 e2a1 f6b6 9595
00000060: 9e08 c821 d21c de0d 122b cde5 4e4a be08
00000070: 1d17 9b31 0ef2 09b0 c2ff c615 4950 4bc4
00000080: 3398 aed5 131f 57d5 a2e9 d140 2dba 5cee
00000090: a4de 1e4f 35de cb9c 2715 0fe2 4fb4 5d3a
000000a0: 1a99 a9bd f3ad 5b38 dab4 5b94 2c29 1d5c
000000b0: 4292 3800 57fa 32d1 279b 019c 19b1 9bd7
000000c0: 1dd2 cc9f fed3 ad18 cba9 bad6 64cb 1c25
000000d0: 2933 cea9 51df 01f0 c156 0fff b89c d1d5
000000e0: a315 0354 a056 c859 e53e 02b7 babc a1bf
000000f0: ca31 3a4a 44c8 a11b d6dd 2702 0d4c b42f
0.04484115 0.0032029394 -0.024555868 -0.036299977 0.04804409 0.07473525 0.06832937 -0.08541171
0.10462935 -0.032029394 0.03523233 -0.099291116 0.06405879 -0.042705856 -0.017082343 -0.028826453
0.007473525 0.023488222 -0.07900584 0.07153231 -0.017082343 -0.06832937 0.037367623 0.08541171
-0.040570565 0.09608818 0.09822347 -0.09502053 0.09074995 0.054449968 -0.116373464 -0.028826453
0.0032029394 -0.032029394 -0.010676464 0.025623515 -0.04163821 0.027758807 -0.09822347 -0.021352928
0.0896823 0.021352928 -0.049111735 0.09395289 -0.018149989 0.061923493 0.045908798 -0.10142641
0.010676464 0.017082343 0.0010676464 0.065126434 -0.08007348 -0.11103523 -0.07046466 0.057652906
0.023488222 0.058720555 0.08541171 -0.0042705857 0.07046466 0.04484115 0.072599955 0.025623515
0.009608818 -0.036299977 -0.09395289 0.09822347 0.05017938 -0.09074995 0.058720555 -0.106764644
0.06939702 0.057652906 -0.116373464 -0.054449968 -0.042705856 -0.09074995 -0.05017938 -0.018149989
-0.116373464 0.017082343 0.049111735 0.061923493 -0.005338232 0.06832937 -0.06832937 -0.091817595
0.08861465 -0.025623515 -0.032029394 -0.10142641 -0.010676464 -0.07900584 -0.114238165 -0.114238165
-0.10462935 0.008541171 -0.0597882 0.03523233 -0.049111735 0.0298941 -0.036299977 0.0138794035
0.019217636 0.045908798 -0.054449968 -0.028826453 0.08327642 0.07900584 -0.07046466 0.008541171
0.030961746 0.024555868 -0.10783229 0.052314676 0.01494705 -0.01494705 0.009608818 -0.08541171
-0.06619408 -0.0010676464 -0.061923493 0.022420576 0.07793819 0.08541171 0.08007348 -0.06405879
0.054449968 -0.11103523 -0.087547004 -0.045908798 0.020285282 0.03309704 0.09288524 -0.045908798
-0.10035876 -0.024555868 -0.05017938 0.06832937 0.04804409 -0.07473525 0.09822347 -0.019217636
-0.09822347 -0.036299977 0.032029394 0.08434407 0.05658526 -0.036299977 -0.05658526 -0.106764644
0.04163821 0.022420576 0.016014697 -0.032029394 0.08434407 -0.08114113 0.099291116 0.061923493
0.027758807 -0.10996758 -0.09288524 -0.07153231 -0.0138794035 -0.08861465 0.097155824 0.0597882
-0.040570565 -0.08114113 0.097155824 -0.11530581 0.046976443 0.043773502 0.030961746 0.09822347
0.07046466 -0.11744111 0.0597882 0.0 0.09288524 -0.006405879 0.053382322 -0.05017938
0.04163821 -0.10783229 0.0010676464 -0.106764644 0.026691161 -0.08434407 -0.10783229 -0.043773502
0.030961746 -0.049111735 -0.055517614 -0.10356171 -0.0021352929 -0.04804409 -0.08861465 0.025623515
-0.05658526 -0.09288524 -0.07473525 -0.04484115 0.106764644 -0.05658526 0.0298941 0.03950292
0.043773502 0.054449968 -0.053382322 -0.09288524 0.08647936 -0.03523233 0.0010676464 -0.017082343
-0.067261726 0.091817595 0.016014697 -0.0010676464 -0.076870546 -0.106764644 -0.05017938 -0.045908798
-0.099291116 0.022420576 0.0032029394 0.0896823 -0.10249406 0.091817595 -0.0597882 0.09502053
-0.028826453 0.06619408 0.0021352929 -0.07793819 -0.07473525 -0.072599955 -0.10142641 -0.06939702
-0.057652906 0.052314676 0.061923493 0.07900584 0.072599955 -0.0597882 -0.10142641 0.028826453
-0.04484115 -0.037367623 0.04163821 0.0021352929 0.0138794035 0.08114113 -0.08114113 0.05017938

sequential/dense_1/MatMul i1 [5, 256] scale=0.0013373479 zero_point=0
00000000: e5da 588d 3904 0cb0 0972 acac faaf cadf
00000010: 7042 8c57 522e ec10 ba1b c65e f6ec a12e
00000020: f11b e937 dd32 d7ba 57af c912 b948 406f
00000030: 2843 b031 5939 6acd 049e d26c 2cad c528
00000040: 9f26 f36a 2815 d6de 97ef 9b2a 1495 2463
00000050: daba 9527 602e 17af 0b6d ea13 2a89 2f26
00000060: f895 6249 c9c8 e206 453d 30e2 feb2 ca5b
00000070: 47f2 84d1 bc9b d9ff 2c8b 3b22 7440 355c
00000080: 5888 47c9 0743 67ef 585f b7d3 18f2 2b1c
00000090: dbc0 1607 db6e e2fb da15 503b e9f2 673e
000000a0: 28a3 cf1f 9bf4 79bf 5157 2d4f 6844 d6bf
000000b0: 81f3 4aba fcd8 db9a 9d2c 0e06 3ea5 4e18
000000c0: 125b bc0a f4d0 2a5c 38cc 17ff 685a b4c5
000000d0: 0f92 c0e5 f59c 52e0 230a 4f1d afb8 6b50
000000e0: 9fde 0c8f a90d a9ea e91b 0659 1937 15e4
000000f0: 84d2 6460 dede fb29 24b2 f8af e788 2c49
-0.036108393 -0.050819222 0.117686614 -0.153795 0.07622883 0.0053493916 0.016048174 -0.106987834
0.012036131 0.15245765 -0.112337224 -0.112337224 -0.008024087 -0.10832518 -0.07221679 -0.044132482
0.14978297 0.088264965 -0.15513235 0.116349265 0.109662525 0.061518002 -0.026746958 0.021397566
-0.093614355 0.036108393 -0.07756618 0.1257107 -0.013373479 -0.026746958 -0.12704805 0.061518002
-0.020060219 0.036108393 -0.030759001 0.073554136 -0.046807177 0.066867396 -0.054831263 -0.093614355
0.116349265 -0.10832518 -0.073554136 0.024072262 -0.094951704 0.096289046 0.085590266 0.14844562
0.053493917 0.08960231 -0.106987834 0.06553005 0.119023964 0.07622883 0.14175887 -0.068204746
0.0053493916 -0.1310601 -0.061518002 0.14443357 0.058843307 -0.110999875 -0.078903526 0.053493917
-0.12972274 0.050819222 -0.017385522 0.14175887 0.053493917 0.028084306 -0.056168612 -0.045469828
-0.14042152 -0.022734914 -0.13507214 0.056168612 0.026746958 -0.14309622 0.048144523 0.13239744
-0.050819222 -0.093614355 -0.14309622 0.052156568 0.1283854 0.061518002 0.030759001 -0.10832518
0.014710827 0.14577092 -0.029421654 0.025409611 0.056168612 -0.1591444 0.06285535 0.050819222
-0.010698783 -0.14309622 0.1310601 0.097626396 -0.073554136 -0.074891485 -0.040120438 0.008024087
0.092277005 0.081578225 0.0641927 -0.040120438 -0.0026746958 -0.104313135 -0.07221679 0.12169866
0.094951704 -0.018722871 -0.16583113 -0.06285535 -0.090939656 -0.13507214 -0.052156568 -0.0013373479
0.058843307 -0.1564697 0.078903526 0.045469828 0.15513235 0.085590266 0.07087944 0.123036005
0.117686614 -0.16048175 0.094951704 -0.073554136 0.009361436 0.08960231 0.13774684 -0.022734914
0.117686614 0.12704805 -0.097626396 -0.060180657 0.03209635 -0.018722871 0.05750596 0.037445743
-0.049481872 -0.085590266 0.029421654 0.009361436 -0.049481872 0.14710827 -0.040120438 -0.0066867396
-0.050819222 0.028084306 0.106987834 0.078903526 -0.030759001 -0.018722871 0.13774684 0.08291557
0.053493917 -0.124373354 -0.06553005 0.041457783 -0.13507214 -0.016048174 0.1618191 -0.086927615
0.10832518 0.116349265 0.060180657 0.105650485 0.13908418 0.090939656 -0.056168612 -0.086927615
-0.16984318 -0.017385522 0.098963745 -0.093614355 -0.0053493916 -0.053493917 -0.049481872 -0.13640949
-0.13239744 0.058843307 0.018722871 0.008024087 0.08291557 -0.12169866 0.104313135 0.03209635
0.024072262 0.12169866 -0.090939656 0.013373479 -0.016048174 -0.0641927 0.056168612 0.123036005
0.074891485 -0.06954209 0.030759001 -0.0013373479 0.13908418 0.12036131 -0.101638444 -0.078903526
0.020060219 -0.14710827 -0.085590266 -0.036108393 -0.014710827 -0.13373479 0.109662525 -0.042795133
0.046807177 0.013373479 0.105650485 0.03878309 -0.10832518 -0.096289046 0.14309622 0.106987834
-0.12972274 -0.045469828 0.016048174 -0.15112032 -0.116349265 0.017385522 -0.116349265 -0.029421654
-0.030759001 0.036108393 0.008024087 0.119023964 0.033433698 0.073554136 0.028084306 -0.037445743
-0.16583113 -0.061518002 0.13373479 0.1283854 -0.045469828 -0.045469828 -0.0066867396 0.054831263
0.048144523 -0.104313135 -0.010698783 -0.10832518 -0.033433698 -0.16048175 0.058843307 0.097626396
