Jupyter-notebook/Machine learning/indian sign language detection model/models/tf_lite_float_16_model.tflite (tflite, 190000 bytes, 10 tensors)

sequential/conv2d/BiasAdd/ReadVariableOp f2 [65]
0	0x1ac3	0.003302
1	0x99ce	-0.002834
2	0x2540	0.02051
3	0x1dab	0.005535
4	0x253f	0.0205
5	0x20c0	0.00928
6	0x2553	0.0208
7	0x25e2	0.02298
8	0xa098	-0.00897
9	0x20e2	0.00954
10	0x23bc	0.01511
11	0x2146	0.0103
12	0x9e9f	-0.006466
13	0x18d2	0.002354
14	0x9888	-0.002213
15	0x97b5	-0.001882
16	0xa481	-0.0176
17	0x24db	0.01897
18	0x204d	0.0084
19	0x96ed	-0.001691
20	0x1c61	0.004276
21	0xa3ad	-0.01499
22	0x20db	0.00948
23	0x1f58	0.00717
24	0x21c6	0.01128
25	0x245f	0.01707
26	0x1cb6	0.0046
27	0x9554	-0.001301
28	0x1e06	0.005882
29	0x244d	0.0168
30	0x97c4	-0.001896
31	0x2023	0.00808
32	0x2548	0.02063
33	0x2483	0.01762
34	0x236f	0.01452
35	0x2134	0.01016
36	0x1d9b	0.005474
37	0x1cf7	0.00485
38	0x1e96	0.00643
39	0xa490	-0.01782
40	0x117b	0.000669
41	0x20a0	0.00903
42	0x2520	0.02002
43	0x1fd0	0.00763
44	0x2523	0.02007
45	0x0c61	0.0002673
46	0x24f1	0.0193
47	0xa26e	-0.01256
48	0x220e	0.011826
49	0xa170	-0.01062
50	0x9cb7	-0.004604
51	0x246d	0.01729
52	0x9ed6	-0.006676
53	0x21b4	0.01114
54	0x2023	0.00808
55	0x204c	0.00839
56	0x9eec	-0.00676
57	0x25b0	0.02222
58	0x24fd	0.01949
59	0x25b7	0.02232
60	0xa413	-0.01591
61	0x9d9f	-0.00549
62	0x20e6	0.00957
63	0xa1b9	-0.01118
64	0x1419	0.001

sequential/conv2d_1/BiasAdd/ReadVariableOp f2 [40]
0	0x9d78	-0.00534
1	0xa072	-0.00868
2	0x22cf	0.0133
3	0x9d13	-0.004955
4	0x912b	-0.000631
5	0xa451	-0.01686
6	0x259b	0.0219
7	0xa051	-0.00843
8	0xa17e	-0.01073
9	0x24b8	0.01843
10	0x9fd6	-0.007652
11	0x24fa	0.01944
12	0x257d	0.02144
13	0x22b5	0.0131
14	0x2563	0.02104
15	0x155e	0.00131
16	0x2465	0.01717
17	0x9f54	-0.007156
18	0x9ca9	-0.00455
19	0x2474	0.0174
20	0x2592	0.02176
21	0x1ff6	0.007774
22	0x9e54	-0.00618
23	0xa253	-0.01235
24	0xa17b	-0.010704
25	0xa074	-0.0087
26	0x1b28	0.003494
27	0xa01a	-0.00801
28	0x246b	0.01726
29	0x1cba	0.004616
30	0x1d76	0.005333
31	0x23fe	0.01561
32	0x248f	0.0178
33	0x2575	0.02132
34	0x23cb	0.01522
35	0x2362	0.01442
36	0x2428	0.01624
37	0x1fe2	0.007698
38	0xa231	-0.01209
39	0x9e4d	-0.006153

sequential/conv2d_2/BiasAdd/ReadVariableOp f2 [25]
0	0x9b94	-0.0037
1	0xa0c0	-0.00928
2	0xa280	-0.012695
3	0xa246	-0.01225
4	0x2228	0.012024
5	0x98ba	-0.002308
6	0xa0f7	-0.0097
7	0x22c0	0.01318
8	0x9daf	-0.00555
9	0x2531	0.02028
10	0x24a7	0.01817
11	0x1a6d	0.003138
12	0x2497	0.01793
13	0x9fc6	-0.00759
14	0x245c	0.01703
15	0x1aa9	0.003252
16	0x24a4	0.01813
17	0xa4cc	-0.01874
18	0x248b	0.01775
19	0x20df	0.009514
20	0x1b53	0.003576
21	0x9c53	-0.004223
22	0xa0e8	-0.00958
23	0x15cf	0.001418
24	0x1e9a	0.006447

sequential/conv2d/Conv2D f2 [65, 3, 3, 1]
0	0xac5e	-0.06824
1	0xab9f	-0.05954
2	0x2455	0.01692
3	0xa32e	-0.01402
4	0xaeeb	-0.1081
5	0x291c	0.03992
6	0x9ed5	-0.00667
7	0xae24	-0.09595
8	0x2c18	0.06396
9	0x2465	0.01717
10	0xa870	-0.03467
11	0x207f	0.00878
12	0xadb7	-0.0893
13	0x9f72	-0.00727
14	0xaf2e	-0.1122
15	0xa056	-0.00847
16	0x2d70	0.08496
17	0xa91c	-0.03992
18	0x9b49	-0.003557
19	0x2114	0.00992
20	0x2c7d	0.0701
21	0x258b	0.02165
22	0xa8f6	-0.03876
23	0x2cf2	0.0773
24	0x9201	-0.000733
25	0x2a08	0.04712
26	0x2cd5	0.0755
27	0x2d20	0.0801
28	0xaec7	-0.1059
29	0xadc9	-0.0904
30	0xa9ec	-0.04626
31	0x207a	0.00874
32	0x2b0e	0.0551
33	0xaf78	-0.1167
34	0x20e3	0.009544
35	0xa966	-0.04218
36	0xaa4f	-0.0493
37	0x2e30	0.0967
38	0x2bac	0.05994
39	0x2cea	0.0768
40	0x284e	0.03363
41	0xa5be	-0.02243
42	0xa86d	-0.03458
43	0x2e3b	0.09735
44	0xaca7	-0.0727
45	0xacc5	-0.0745
46	0xa0fa	-0.00972
47	0x292b	0.04037
48	0xa927	-0.04025
49	0xac09	-0.06305
50	0xa199	-0.01093
51	0xaf02	-0.1095
52	0xa88b	-0.0355
53	0xac93	-0.0715
54	0x2d42	0.08215
55	0xa156	-0.01042
56	0x216a	0.010574
57	0x2464	0.01715
58	0x2ac5	0.0529
59	0xa833	-0.0328
60	0x2dfc	0.0935
61	0xa5a4	-0.02203
62	0xa928	-0.04028
63	0x2ba7	0.05978
64	0x2f14	0.1106
65	0xa436	-0.01645
66	0x2ac6	0.05292
67	0x2cde	0.07605
68	0x2200	0.01172
69	0x2dd2	0.09094
70	0x2d08	0.0786
71	0xa6d7	-0.02672
72	0xa426	-0.0162
73	0xab8c	-0.05896
74	0xac3e	-0.0663
75	0xa947	-0.04123
76	0xad56	-0.0834
77	0x27b6	0.03012
78	0xacb0	-0.07324
79	0x1d26	0.005028
80	0x2dd2	0.09094
81	0x28d3	0.0377
82	0x94fa	-0.001215
83	0xa096	-0.00896
84	0x2caa	0.0729
85	0xabe7	-0.06174
86	0xaf2b	-0.112
87	0xab7a	-0.0584
88	0xae2a	-0.0963
89	0xa8c3	-0.0372
90	0x25b8	0.02234
91	0xa179	-0.01069
92	0x2d88	0.0864
93	0x1cce	0.004692
94	0x2ad8	0.05347
95	0x277b	0.02922
96	0x2eae	0.1044
97	0x2eb1	0.10455
98	0x2d8d	0.08673
99	0xa669	-0.02504
100	0xaa68	-0.05005
101	0x9dda	-0.005714
102	0xaf11	-0.1104
103	0xa45e	-0.01706
104	0xa456	-0.01694
105	0x1d0c	0.00493
106	0xaf45	-0.1136
107	0xa9a9	-0.04422
108	0xac1d	-0.0643
109	0x2cb7	0.07367
110	0xa9f8	-0.04663
111	0xa932	-0.0406
112	0xacdf	-0.0761
113	0xad98	-0.0874
114	0x2741	0.02834
115	0x241f	0.0161
116	0x2458	0.01697
117	0x27f1	0.03102
118	0xa659	-0.0248
119	0x20b1	0.00916
120	0x2452	0.01688
121	0x2c7d	0.0701
122	0x2d59	0.08356
123	0xa635	-0.02425
124	0xab3e	-0.05658
125	0xa84f	-0.03366
126	0xab12	-0.05524
127	0xabc5	-0.0607
128	0x2d60	0.084
129	0xac5a	-0.068
130	0xa783	-0.02934
131	0x27a4	0.02985
132	0x2b98	0.05933
133	0xa2c4	-0.013214
134	0xac12	-0.0636
135	0xae59	-0.0992
136	0xaa40	-0.04883
137	0x2a68	0.05005
138	0x2ccf	0.07513
139	0xa810	-0.03174
140	0xaaf3	-0.0543
141	0xab1d	-0.05557
142	0x2c64	0.0686
143	0x1894	0.002235
144	0xadb4	-0.0891
145	0x9dd2	-0.005684
146	0x2b2e	0.0561
147	0x29dc	0.04578
148	0x2c58	0.0679
149	0xad08	-0.0786
150	0x9d21	-0.00501
151	0x2c5f	0.0683
152	0xae4d	-0.09845
153	0x2735	0.02815
154	0x2e27	0.0961
155	0xad15	-0.0794
156	0x2826	0.0324
157	0x2b0c	0.05505
158	0x8da0	-0.0003433
159	0x2d54	0.08325
160	0x2d10	0.0791
161	0x2c1a	0.0641
162	0xa5ee	-0.02316
163	0xaee3	-0.1076
164	0x2e4d	0.09845
165	0xaaea	-0.05402
166	0x2a64	0.04993
167	0x2278	0.012634
168	0xaa09	-0.04715
169	0xacf1	-0.0772
170	0x28bd	0.03702
171	0xa9fa	-0.0467
172	0x28d0	0.0376
173	0x2667	0.02501
174	0xad63	-0.08417
175	0x28c8	0.03735
176	0x2de0	0.0918
177	0x9d6a	-0.005287
178	0xa82d	-0.03262
179	0x223e	0.01219
180	0x1e29	0.006016
181	0x2b29	0.05594
182	0xab49	-0.05692
183	0xadb0	-0.08887
184	0xaf0f	-0.1103
185	0xaf39	-0.11285
186	0xa04c	-0.00839
187	0x2cf2	0.0773
188	0x2577	0.02135
189	0xad5a	-0.0836
190	0x2c9d	0.0721
191	0x2dbe	0.0897
192	0x2c21	0.0645
193	0x18c9	0.002337
194	0x2e77	0.101
195	0xab48	-0.0569
196	0xab7f	-0.05856
197	0xad5d	-0.0838
198	0xad56	-0.0834
199	0x2c9f	0.0722
200	0xaceb	-0.07684
201	0xaf63	-0.1154
202	0xaca3	-0.07245
203	0xa030	-0.00818
204	0xaf47	-0.1137
205	0xaf39	-0.11285
206	0xaa4d	-0.04922
207	0x292f	0.0405
208	0xa26f	-0.012566
209	0xa370	-0.01453
210	0xa82f	-0.03268
211	0x200b	0.0079
212	0xab9a	-0.0594
213	0xa95c	-0.04187
214	0x1eda	0.00669
215	0xa8ed	-0.03848
216	0xa999	-0.04373
217	0xadbd	-0.08966
218	0x2e0c	0.0945
219	0xac23	-0.06464
220	0x2463	0.01714
221	0xa950	-0.0415
222	0xaf1a	-0.11096
223	0x1366	0.000903
224	0x25e6	0.02304
225	0xa943	-0.0411
226	0x2825	0.03238
227	0xacdf	-0.0761
228	0x2c67	0.0688
229	0xac72	-0.06946
230	0x295a	0.0418
231	0x24f1	0.0193
232	0x2d1b	0.0798
233	0xad28	-0.08057
234	0x2d77	0.0854
235	0x22c4	0.013214
236	0xaeaf	-0.10443
237	0xa911	-0.03958
238	0x9c01	-0.00391
239	0x2c23	0.06464
240	0xaaf0	-0.0542
241	0xaa98	-0.0515
242	0xaf53	-0.11444
243	0xaa8f	-0.05124
244	0xa836	-0.0329
245	0xabf8	-0.06226
246	0x2ca6	0.07263
247	0x1cc7	0.004665
248	0xa8cd	-0.0375
249	0x9bb0	-0.003754
250	0xae40	-0.09766
251	0xaa12	-0.04742
252	0x1399	0.0009274
253	0xa9c9	-0.0452
254	0x28ad	0.03653
255	0xadef	-0.0927

sequential/conv2d_1/Conv2D f2 [40, 3, 3, 65]
0	0xa61b	-0.02385
1	0xa298	-0.01288
2	0x2c34	0.0657
3	0x2c5f	0.0683
4	0x2c7b	0.07
5	0x238f	0.01476
6	0xa35d	-0.01438
7	0x2d20	0.0801
8	0xaa61	-0.04984
9	0x2905	0.0392
10	0x2c05	0.0628
11	0xa8f1	-0.0386
12	0xa992	-0.04352
13	0x2818	0.03198
14	0xa694	-0.0257
15	0xa7f1	-0.03102
16	0x2c59	0.06793
17	0xa81f	-0.0322
18	0xa612	-0.02371
19	0xa958	-0.04175
20	0xa522	-0.02005
21	0xa99d	-0.04385
22	0xa2d9	-0.013374
23	0x27ab	0.02995
24	0x2b7e	0.05853
25	0xabf9	-0.0623
26	0x2d81	0.086
27	0xaa4b	-0.04916
28	0xaa03	-0.04697
29	0xa728	-0.02795
30	0x2cd9	0.07574
31	0xad3c	-0.0818
32	0xacb9	-0.0738
33	0xa3a0	-0.01489
34	0x2a5a	0.04962
35	0xa8a5	-0.0363
36	0xa8ba	-0.03693
37	0x9317	-0.0008655
38	0x219a	0.01094
39	0xa7a6	-0.02988
40	0x2294	0.01285
41	0x1e68	0.006256
42	0xa759	-0.0287
43	0x9489	-0.001107
44	0x2803	0.03134
45	0xa8c9	-0.03738
46	0xa26a	-0.01253
47	0x28a0	0.03613
48	0x2a51	0.04935
49	0xa1dd	-0.01145
50	0x2a25	0.048
51	0x2acb	0.05307
52	0x2c65	0.06866
53	0x28ba	0.03693
54	0x2d9e	0.08777
55	0xa995	-0.0436
56	0xa3ca	-0.01521
57	0x262c	0.02411
58	0xabd6	-0.06122
59	0x24dc	0.01898
60	0xa3f9	-0.01557
61	0x98da	-0.002369
62	0x28f3	0.03867
63	0x2858	0.03394
64	0x2315	0.01383
65	0x1da5	0.005512
66	0x9781	-0.001832
67	0xa432	-0.01639
68	0xa967	-0.0422
69	0x286b	0.03452
70	0xa4c0	-0.01855
71	0x2ddc	0.09155
72	0x26e6	0.02695
73	0x28bd	0.03702
74	0xaa58	-0.04956
75	0xac83	-0.0705
76	0x2a24	0.04797
77	0x2b69	0.0579
78	0xa9d0	-0.0454
79	0xa4e0	-0.01904
80	0x161f	0.001494
81	0x2875	0.03482
82	0xa477	-0.01744
83	0xa63e	-0.02438
84	0xaabd	-0.05264
85	0xa0d7	-0.00945
86	0x2b92	0.05914
87	0x2cf4	0.0774
88	0xac3c	-0.06616
89	0x11fb	0.00073
90	0x2cc9	0.07477
91	0xaa00	-0.04688
92	0x2ccf	0.07513
93	0x2441	0.01662
94	0x9a12	-0.002964
95	0xa74f	-0.02855
96	0x2671	0.02516
97	0x10e2	0.000596
98	0xaa8f	-0.05124
99	0xa778	-0.02917
100	0xa19d	-0.01096
101	0xab47	-0.05685
102	0x2c4f	0.0673
103	0x2190	0.010864
104	0x1961	0.002626
105	0xa798	-0.02966
106	0xaa2d	-0.04825
107	0x1fa7	0.007473
108	0xaac4	-0.05286
109	0x29df	0.04587
110	0xacc7	-0.07465
111	0x2496	0.01791
112	0x92d3	-0.000833
113	0x2678	0.02527
114	0x2b52	0.0572
115	0xa7d8	-0.03064
116	0x2c0f	0.0634
117	0x273b	0.02824
118	0x2dd9	0.0914
119	0xa256	-0.012375
120	0x24ae	0.01828
121	0x2a6b	0.05014
122	0xa55e	-0.02097
123	0x2764	0.02887
124	0x2952	0.04156
125	0xacfd	-0.07794
126	0x2c35	0.06573
127	0x28e6	0.03827
128	0xa86d	-0.03458
129	0x2a28	0.0481
130	0xac0c	-0.06323
131	0x2547	0.02061
132	0xa493	-0.01787
133	0x2a3b	0.04868
134	0xa843	-0.0333
135	0xac34	-0.0657
136	0xab29	-0.05594
137	0x2caa	0.0729
138	0x271f	0.02782
139	0x143d	0.001035
140	0xa3e6	-0.01543
141	0xac0c	-0.06323
142	0x24aa	0.01822
143	0xa1fb	-0.01168
144	0x2c42	0.0665
145	0xa60c	-0.02362
146	0xa82d	-0.03262
147	0x2b43	0.05673
148	0x1a80	0.003174
149	0xaaf2	-0.05426
150	0xa2b7	-0.013115
151	0xab27	-0.05588
152	0xa25d	-0.01243
153	0xa820	-0.03223
154	0xac91	-0.07135
155	0xaa2f	-0.0483
156	0xac54	-0.0676
157	0x270f	0.02757
158	0x2545	0.02058
159	0xa60d	-0.02364
160	0xac66	-0.0687
161	0x2829	0.0325
162	0xa8e4	-0.0382
163	0xa6a9	-0.02602
164	0xa607	-0.02354
165	0xa3fa	-0.01558
166	0x2c17	0.0639
167	0x2c66	0.0687
168	0x21b1	0.011116
169	0xac4a	-0.067
170	0x263c	0.02435
171	0x2b67	0.05783
172	0x2c1c	0.0642
173	0xa93e	-0.04095
174	0x2956	0.0417
175	0xacc1	-0.0743
176	0x22fc	0.01364
177	0xa43a	-0.01651
178	0x23a3	0.014915
179	0xa947	-0.04123
180	0xacba	-0.07385
181	0x2b92	0.05914
182	0x2954	0.04163
183	0xaa3a	-0.04865
184	0xac8c	-0.07104
185	0xac77	-0.06976
186	0xad5c	-0.08374
187	0x2ceb	0.07684
188	0x2c85	0.0706
189	0x2c83	0.0705
190	0xab9a	-0.0594
191	0x288e	0.03558
192	0x22b5	0.0131
193	0x23c6	0.01518
194	0xac4b	-0.0671
195	0x2c97	0.0717
196	0xa08b	-0.00887
197	0xab92	-0.05914
198	0x26ea	0.02701
199	0xa82a	-0.03253
200	0x242f	0.01634
201	0xaabc	-0.0526
202	0xa817	-0.03195
203	0xa86c	-0.03455
204	0x299d	0.04385
205	0xa97b	-0.04282
206	0xac06	-0.06287
207	0x2abf	0.0527
208	0x2a3f	0.0488
209	0xaa9c	-0.05164
210	0x2cf8	0.07764
211	0x260d	0.02364
212	0xa911	-0.03958
213	0xa962	-0.04205
214	0x27fa	0.03116
215	0x2874	0.0348
216	0xa5bd	-0.02242
217	0x284a	0.0335
218	0xa44c	-0.01678
219	0xabc4	-0.06067
220	0xaba4	-0.0597
221	0xa899	-0.03592
222	0x1dae	0.005547
223	0x25b2	0.02225
224	0x2c8b	0.071
225	0x213a	0.01021
226	0x2a92	0.05133
227	0xa798	-0.02966
228	0x969b	-0.001613
229	0xa17d	-0.01072
230	0xa9fb	-0.04672
231	0x2dca	0.09045
232	0xa8c2	-0.03717
233	0x2965	0.04214
234	0xa7fb	-0.03117
235	0x299d	0.04385
236	0x29da	0.04572
237	0xac1a	-0.0641
238	0x1cbc	0.004623
239	0xa7d8	-0.03064
240	0x22b1	0.01307
241	0xa46e	-0.0173
242	0xa2bf	-0.013176
243	0x0bd2	0.0002387
244	0x9db9	-0.00559
245	0x288a	0.03546
246	0xabdc	-0.0614
247	0xa858	-0.03394
248	0xa5fe	-0.0234
249	0x2d30	0.08105
250	0xab45	-0.0568
251	0x256a	0.02115
252	0xa0cd	-0.00938
253	0x2cc5	0.0745
254	0x285d	0.0341
255	0x2a4a	0.04913

sequential/conv2d_2/Conv2D f2 [25, 3, 3, 40]
0	0x2e96	0.1029
1	0xaa61	-0.04984
2	0xad8c	-0.0867
3	0x2ca5	0.0726
4	0x2e87	0.102
5	0xad25	-0.0804
6	0xadd6	-0.0912
7	0xacb4	-0.0735
8	0x2aaf	0.05222
9	0xa8ac	-0.0365
10	0x2aea	0.05402
11	0x2db0	0.08887
12	0xab0e	-0.0551
13	0xabfb	-0.06235
14	0x1bc9	0.003801
15	0x285b	0.03403
16	0x2e2d	0.0965
17	0xae02	-0.0939
18	0x2a6e	0.05023
19	0xa78d	-0.0295
20	0xad5b	-0.0837
21	0x2e48	0.09814
22	0x2dea	0.0924
23	0xa969	-0.04227
24	0xa426	-0.0162
25	0x2d58	0.0835
26	0x2c9f	0.0722
27	0xa6a2	-0.02591
28	0xa277	-0.01263
29	0x2e04	0.094
30	0x2c9b	0.07196
31	0xa8d3	-0.0377
32	0xa73a	-0.02823
33	0x24bc	0.0185
34	0x2a87	0.051
35	0x2e15	0.09503
36	0x28ab	0.03647
37	0xacf4	-0.0774
38	0x2308	0.01373
39	0x1c71	0.004337
40	0x2ebc	0.1052
41	0xab82	-0.05865
42	0x0e88	0.0003986
43	0x85b0	-8.68e-05
44	0x2d03	0.0783
45	0xae1d	-0.0955
46	0xadfe	-0.0936
47	0xadbd	-0.08966
48	0x24d1	0.01881
49	0x28f4	0.0387
50	0x2aa5	0.0519
51	0xac24	-0.0647
52	0x8e97	-0.0004022
53	0x2b24	0.0558
54	0xac55	-0.0677
55	0x292a	0.04034
56	0x2686	0.02548
57	0x2c28	0.06494
58	0x2937	0.04074
59	0xab43	-0.05673
60	0xa1e7	-0.01153
61	0xa1d0	-0.01135
62	0xa5d3	-0.02275
63	0xab21	-0.0557
64	0x2968	0.04224
65	0x2a7c	0.05066
66	0x291a	0.03986
67	0x2d62	0.0841
68	0xa89c	-0.036
69	0xa86f	-0.03464
70	0x26c3	0.02641
71	0x272b	0.028
72	0xa6f3	-0.02715
73	0xa6c0	-0.02637
74	0xaaa8	-0.052
75	0xad15	-0.0794
76	0xa076	-0.00871
77	0xac70	-0.06934
78	0x2c6a	0.069
79	0xa5cd	-0.02266
80	0x2c48	0.0669
81	0xad0f	-0.07904
82	0xa72d	-0.02803
83	0xac90	-0.0713
84	0xa0f0	-0.00964
85	0xaeca	-0.1061
86	0xac41	-0.06647
87	0xae86	-0.1019
88	0x1970	0.002655
89	0xa87d	-0.03506
90	0xaea9	-0.10406
91	0x2b00	0.0547
92	0x287a	0.03497
93	0xac66	-0.0687
94	0xa3b3	-0.01504
95	0xa874	-0.0348
96	0xa495	-0.0179
97	0x2c41	0.06647
98	0x2044	0.00833
99	0xacba	-0.07385
100	0xadde	-0.0917
101	0x1ffb	0.007793
102	0xae62	-0.09973
103	0x290a	0.03937
104	0xa9bf	-0.0449
105	0x292d	0.04044
106	0x2904	0.03918
107	0x2cd9	0.07574
108	0x2f09	0.1099
109	0x2c28	0.06494
110	0xa389	-0.01472
111	0x25fa	0.02335
112	0x2922	0.0401
113	0x2d42	0.08215
114	0xa2d9	-0.013374
115	0x2dc8	0.09033
116	0xac65	-0.06866
117	0x2e36	0.09705
118	0xac55	-0.0677
119	0xad91	-0.087
120	0x256d	0.0212
121	0xa0ba	-0.00923
122	0x2e32	0.0968
123	0x2914	0.03967
124	0x2bf1	0.06204
125	0xa376	-0.01457
126	0x2c5c	0.0681
127	0xad69	-0.08453
128	0x2d30	0.08105
129	0xa909	-0.03934
130	0xa56c	-0.02118
131	0x2908	0.0393
132	0xae15	-0.09503
133	0x2487	0.01768
134	0x9c7a	-0.00437
135	0x2668	0.02502
136	0xad12	-0.0792
137	0x286b	0.03452
138	0xa8fb	-0.0389
139	0x2b58	0.05737
140	0xa9e2	-0.04596
141	0x2de4	0.09204
142	0x2e39	0.0972
143	0xac19	-0.064
144	0xa83a	-0.03302
145	0x2ebf	0.1054
146	0x9558	-0.001305
147	0x2bed	0.06192
148	0x2030	0.00818
149	0x2a8e	0.0512
150	0x2db7	0.0893
151	0x2d31	0.0811
152	0x2e8f	0.1025
153	0xac0a	-0.0631
154	0x2e27	0.0961
155	0xacb9	-0.0738
156	0x9f29	-0.006992
157	0xac37	-0.06586
158	0x28ba	0.03693
159	0x28c3	0.0372
160	0x2a93	0.05136
161	0x94ba	-0.001154
162	0xae54	-0.0989
163	0xadfa	-0.0934
164	0xae54	-0.0989
165	0x1f7f	0.00732
166	0xacb7	-0.07367
167	0xae83	-0.10175
168	0x978d	-0.001843
169	0x2378	0.01459
170	0xacd9	-0.07574
171	0x2dc3	0.09
172	0x2c9b	0.07196
173	0x9b8b	-0.003683
174	0xacf4	-0.0774
175	0x2cbb	0.0739
176	0xab7f	-0.05856
177	0xae16	-0.0951
178	0x28fa	0.03888
179	0x2e0f	0.09467
180	0xacb0	-0.07324
181	0x2df3	0.09296
182	0xa438	-0.01648
183	0x9fcf	-0.007626
184	0xa496	-0.01791
185	0x2ade	0.05365
186	0x1ae9	0.003374
187	0x2192	0.01088
188	0x2d1a	0.0797
189	0xad72	-0.0851
190	0x2cd0	0.0752
191	0xad80	-0.08594
192	0xa75c	-0.02875
193	0x28a7	0.03635
194	0xa17f	-0.010735
195	0x2d62	0.0841
196	0xad50	-0.083
197	0xad0b	-0.0788
198	0xadf8	-0.09326
199	0xae17	-0.09515
200	0x2a66	0.05
201	0xa969	-0.04227
202	0x2dcb	0.0905
203	0xab55	-0.05728
204	0xacbb	-0.0739
205	0xa765	-0.02888
206	0x2b53	0.05722
207	0xaa9b	-0.0516
208	0x2d61	0.08405
209	0x2064	0.008575
210	0xaa7b	-0.05063
211	0xaa33	-0.04843
212	0xa801	-0.03128
213	0xae21	-0.09576
214	0x2d20	0.0801
215	0xac6d	-0.06915
216	0xab7d	-0.0585
217	0xa831	-0.03275
218	0x2088	0.00885
219	0x1cbb	0.00462
220	0x2dbe	0.0897
221	0x1f26	0.00698
222	0xaad0	-0.05322
223	0xab66	-0.0578
224	0xa48f	-0.0178
225	0x2d19	0.07965
226	0x2b56	0.0573
227	0xacc1	-0.0743
228	0x1cf2	0.00483
229	0xaa6f	-0.05026
230	0x2dea	0.0924
231	0xac04	-0.06274
232	0xa897	-0.03586
233	0x2847	0.03342
234	0xa8c2	-0.03717
235	0xac5c	-0.0681
236	0x2cf2	0.0773
237	0xa522	-0.02005
238	0x2aec	0.05408
239	0x2dc8	0.09033
240	0x2b97	0.0593
241	0xa776	-0.02914
242	0x2d04	0.07837
243	0x2d33	0.08124
244	0x2c41	0.06647
245	0xa8fd	-0.03897
246	0x2aff	0.05466
247	0x28c9	0.03738
248	0x2cef	0.0771
249	0xac8c	-0.07104
250	0x2da2	0.088
251	0xaca2	-0.0724
252	0x2c1f	0.0644
253	0xac38	-0.0659
254	0x2db9	0.0894
255	0xa04e	-0.00841

sequential/dense/BiasAdd/ReadVariableOp f2 [256]
0	0x9db9	-0.00559
1	0x1d43	0.00514
2	0x9e24	-0.005997
3	0x152a	0.001261
4	0x21c4	0.01126
5	0x22ce	0.01329
6	0x9f71	-0.007267
7	0xa41e	-0.01608
8	0xa088	-0.00885
9	0x24e0	0.01904
10	0xa09e	-0.00902
11	0x9f65	-0.00722
12	0x9efb	-0.006817
13	0xa131	-0.01014
14	0x9af3	-0.003393
15	0x99fc	-0.002922
16	0x22cc	0.013275
17	0x082b	0.0001272
18	0x9d73	-0.00532
19	0x250b	0.0197
20	0x9a10	-0.00296
21	0x23a6	0.01494
22	0xa13d	-0.01023
23	0x1c9d	0.004505
24	0xa015	-0.00797
25	0xa0f6	-0.00969
26	0x8bd8	-0.0002394
27	0x2306	0.01372
28	0x9e2f	-0.00604
29	0x9c02	-0.003914
30	0xa23f	-0.0122
31	0x1fdc	0.007675
32	0x97b2	-0.001879
33	0x1c0a	0.003944
34	0x2107	0.00982
35	0x2481	0.0176
36	0x0000	0.0
37	0x212a	0.010086
38	0x8513	-7.74e-05
39	0xa47f	-0.01756
40	0x247b	0.0175
41	0xa550	-0.02075
42	0xa261	-0.01246
43	0x206d	0.008644
44	0xa0ea	-0.0096
45	0x0000	0.0
46	0x2359	0.01435
47	0x24aa	0.01822
48	0x2126	0.010056
49	0x2417	0.01598
50	0xa0fd	-0.00974
51	0x1d5a	0.005226
52	0x9fa5	-0.007465
53	0x0fcf	0.0004766
54	0x23a8	0.01495
55	0xa1e5	-0.01151
56	0x0000	0.0
57	0xa159	-0.010445
58	0xa181	-0.01075
59	0x21b2	0.01112
60	0x2329	0.013985
61	0x995f	-0.002623
62	0x8e8a	-0.000399
63	0xa055	-0.00846
64	0xa200	-0.01172
65	0x96a7	-0.001624
66	0x201b	0.00802
67	0x247a	0.01749
68	0x1f80	0.007324
69	0xa193	-0.01089
70	0x8d0c	-0.000308
71	0xa06e	-0.00865
72	0xa133	-0.010155
73	0x9d36	-0.00509
74	0xa2c7	-0.01324
75	0x0000	0.0
76	0x2160	0.0105
77	0xa406	-0.01572
78	0x11d7	0.000713
79	0x24b1	0.01833
80	0xa08f	-0.0089
81	0x9d49	-0.00516
82	0x0c41	0.0002596
83	0x22ce	0.01329
84	0x0000	0.0
85	0x221d	0.01194
86	0x9fde	-0.007683
87	0xa1eb	-0.01156
88	0x1912	0.002476
89	0x1dfc	0.005844
90	0x8dd9	-0.000357
91	0x23fb	0.01559
92	0x1f8d	0.007374
93	0xa08b	-0.00887
94	0x9fcb	-0.00761
95	0x1f10	0.006897
96	0x239c	0.01486
97	0x0e71	0.0003932
98	0x2194	0.010895
99	0x12c2	0.000825
100	0xa0a7	-0.00909
101	0x0000	0.0
102	0x9697	-0.001609
103	0x9db9	-0.00559
104	0x2493	0.01787
105	0x238d	0.01475
106	0x1c89	0.00443
107	0xa502	-0.01956
108	0x1a35	0.00303
109	0xa0fe	-0.00975
110	0x1ccf	0.004696
111	0x23ea	0.01546
112	0x0ecb	0.0004146
113	0x208c	0.00888
114	0xa182	-0.01076
115	0x0000	0.0
116	0xa002	-0.00783
117	0xa460	-0.01709
118	0x2313	0.01382
119	0xa02d	-0.008156
120	0xa3de	-0.015366
121	0x1ac5	0.003305
122	0x23df	0.01537
123	0x9f5f	-0.0072
124	0x1cde	0.004753
125	0x993b	-0.002554
126	0x2543	0.02055
127	0x241c	0.01605
128	0x243e	0.01657
129	0x9c6d	-0.004322
130	0x23b4	0.015045
131	0x9aa6	-0.003246
132	0x2159	0.010445
133	0x2337	0.01409
134	0x2038	0.00824
135	0xa4e2	-0.01907
136	0xa027	-0.00811
137	0x21f5	0.011635
138	0x1d89	0.005405
139	0xa083	-0.00881
140	0x0000	0.0
141	0x9a74	-0.00315
142	0x9fa1	-0.00745
143	0x18af	0.002287
144	0x9a3d	-0.003046
145	0x9efc	-0.00682
146	0x209e	0.00902
147	0x9961	-0.002626
148	0x9820	-0.002014
149	0x23c6	0.01518
150	0x9154	-0.0006504
151	0xa005	-0.00785
152	0x9c70	-0.004333
153	0x964d	-0.001538
154	0x9c04	-0.00392
155	0x23b5	0.01505
156	0x9d0c	-0.00493
157	0x1f86	0.007347
158	0x241a	0.01602
159	0x9dd9	-0.00571
160	0x21a9	0.011055
161	0xa3b0	-0.015015
162	0x1fb0	0.007507
163	0x228c	0.01279
164	0x9c71	-0.004337
165	0x15fe	0.001463
166	0x2353	0.014305
167	0xa57c	-0.02142
168	0x2154	0.01041
169	0x2436	0.01645
170	0x230a	0.01375
171	0x22ec	0.01352
172	0xa06e	-0.00865
173	0x2420	0.01611
174	0xa364	-0.014435
175	0x992c	-0.002525
176	0x98ff	-0.00244
177	0xa3ec	-0.01547
178	0x1cc5	0.004658
179	0xa46e	-0.0173
180	0x20de	0.00951
181	0xa349	-0.01423
182	0x9d8f	-0.00543
183	0xa41f	-0.0161
184	0x1458	0.0010605
185	0x20cb	0.00936
186	0x9f87	-0.00735
187	0x1d96	0.005455
188	0x225a	0.012405
189	0x990c	-0.002464
190	0x1831	0.002047
191	0x9c1e	-0.00402
192	0x963b	-0.001521
193	0x2012	0.00795
194	0xa046	-0.00835
195	0x24be	0.01852
196	0x201d	0.00803
197	0x11dc	0.0007153
198	0x24d2	0.01883
199	0x233a	0.014114
200	0x9ed9	-0.006687
201	0xa21c	-0.01193
202	0x1ec0	0.00659
203	0xa28d	-0.012794
204	0x24f9	0.01942
205	0x9f3a	-0.007057
206	0xa0fa	-0.00972
207	0xa100	-0.009766
208	0x2238	0.012146
209	0xa24c	-0.0123
210	0x9984	-0.002693
211	0x9fa6	-0.00747
212	0x80df	-1.33e-05
213	0x9cf3	-0.004833
214	0x9db9	-0.00559
215	0xa4ad	-0.01826
216	0x2304	0.0137
217	0x23b4	0.015045
218	0x21cc	0.01132
219	0x9894	-0.002235
220	0xa454	-0.0169
221	0x9d55	-0.005207
222	0x243a	0.01651
223	0x248c	0.01776
224	0x9a67	-0.003126
225	0xa2dc	-0.0134
226	0x1d9e	0.005486
227	0xa41e	-0.01608
228	0xa3f1	-0.01551
229	0x9c44	-0.004166
230	0xa06d	-0.008644
231	0x9d06	-0.004906
232	0x2000	0.007812
233	0x1f7b	0.007305
234	0x238a	0.014725
235	0x2050	0.00842
236	0x228d	0.012794
237	0x1eb5	0.00655
238	0xa2fa	-0.013626
239	0xa415	-0.01595
240	0xa493	-0.01787
241	0x9f4b	-0.007122
242	0x22b6	0.01311
243	0x2474	0.0174
244	0x0000	0.0
245	0x9ff0	-0.00775
246	0x95e1	-0.001435
247	0x2118	0.00995
248	0x2133	0.010155
249	0x94d4	-0.001179
250	0x9922	-0.002506
251	0x9937	-0.002546
252	0xa0cc	-0.00937
253	0x9cfc	-0.004868
254	0x1029	0.000508
255	0x1e94	0.006424

sequential/dense_1/BiasAdd/ReadVariableOp f2 [5]
0	0x2509	0.01967
1	0xa219	-0.01191
2	0xa126	-0.010056
3	0x1d1a	0.004982
4	0xa486	-0.01767

sequential/dense/MatMul f2 [256, 225]
0	0x29bc	0.0448
1	0x1aba	0.003284
2	0xa62d	-0.02412
3	0xa8b1	-0.03665
4	0x2a28	0.0481
5	0x2ccc	0.07495
6	0x2c58	0.0679
7	0xad76	-0.0853
8	0x2eb9	0.10504
9	0xa821	-0.03226
10	0x287f	0.03513
11	0xae59	-0.0992
12	0x2c1e	0.06433
13	0xa972	-0.04254
14	0xa447	-0.01671
15	0xa782	-0.02933
16	0x1f69	0.007236
17	0x2603	0.02348
18	0xad14	-0.07935
19	0x2c96	0.07166
20	0xa45e	-0.01706
21	0xac63	-0.06854
22	0x28ca	0.0374
23	0x2d75	0.08527
24	0xa931	-0.04056
25	0x2e26	0.09607
26	0x2e52	0.09875
27	0xae11	-0.0948
28	0x2dce	0.0907
29	0x2afc	0.05457
30	0xaf71	-0.1163
31	0xa75a	-0.02872
32	0x1b5f	0.0036
33	0xa827	-0.03244
34	0xa184	-0.01077
35	0x269d	0.02583
36	0xa94b	-0.04135
37	0x2706	0.02744
38	0xae4f	-0.0986
39	0xa562	-0.02103
40	0x2dc6	0.0902
41	0x255e	0.02097
42	0xaa38	-0.04858
43	0x2e09	0.0943
44	0xa4a5	-0.01814
45	0x2bf9	0.0623
46	0x29d3	0.0455
47	0xae7d	-0.1014
48	0x2133	0.010155
49	0x2480	0.01758
50	0x12d7	0.000835
51	0x2c2b	0.0651
52	0xad19	-0.07965
53	0xaf18	-0.11084
54	0xac8b	-0.071
55	0x2b64	0.05774
56	0x25eb	0.02312
57	0x2b8b	0.05893
58	0x2d7c	0.0857
59	0x9c8a	-0.004433
60	0x2c84	0.07056
61	0x29c1	0.04495
62	0x2caa	0.0729
63	0x26a2	0.02591
64	0x2118	0.00995
65	0xa89c	-0.036
66	0xae05	-0.09406
67	0x2e4e	0.0985
68	0x2a77	0.0505
69	0xadcf	-0.09076
70	0x2b8f	0.05905
71	0xaed3	-0.1066
72	0x2c68	0.06885
73	0x2b59	0.0574
74	0xaf6e	-0.1161
75	0xaaf4	-0.05432
76	0xa97b	-0.04282
77	0xadd6	-0.0912
78	0xaa77	-0.0505
79	0xa488	-0.0177
80	0xaf71	-0.1163
81	0x2467	0.0172
82	0x2a41	0.04886
83	0x2bf5	0.06216
84	0x9dfa	-0.005836
85	0x2c63	0.06854
86	0xac57	-0.0678
87	0xade2	-0.0919
88	0x2da5	0.0882
89	0xa698	-0.02576
90	0xa81a	-0.03204
91	0xae7d	-0.1014
92	0xa162	-0.01051
93	0xad0c	-0.07886
94	0xaf50	-0.11426
95	0xaf52	-0.1144
96	0xaeb2	-0.1046
97	0x208c	0.00888
98	0xabaa	-0.05988
99	0x2879	0.03494
100	0xaa4b	-0.04916
101	0x27c7	0.03038
102	0xa89d	-0.03604
103	0x22fc	0.01364
104	0x2508	0.01965
105	0x29eb	0.04623
106	0xaaee	-0.05414
107	0xa77a	-0.0292
108	0x2d4d	0.0828
109	0x2d0e	0.079
110	0xac7a	-0.06995
111	0x2040	0.0083
112	0x27d1	0.03053
113	0x262e	0.02414
114	0xaeec	-0.10815
115	0x2aa8	0.052
116	0x23bf	0.01513
117	0xa368	-0.014465
118	0x20bf	0.00927
119	0xad74	-0.0852
120	0xac3a	-0.06604
121	0x94cc	-0.001171
122	0xabe3	-0.0616
123	0x25d5	0.02278
124	0x2d04	0.07837
125	0x2d7d	0.08575
126	0x2d1d	0.0799
127	0xac1b	-0.06415
128	0x2b04	0.0548
129	0xaf13	-0.11053
130	0xad99	-0.08746
131	0xa9df	-0.04587
132	0x2526	0.02011
133	0x282b	0.03256
134	0x2df7	0.0932
135	0xa9d9	-0.0457
136	0xae68	-0.1001
137	0xa633	-0.02422
138	0xaa5e	-0.04974
139	0x2c5a	0.068
140	0x2a2f	0.0483
141	0xacc1	-0.0743
142	0x2e42	0.0978
143	0xa500	-0.01953
144	0xae4d	-0.09845
145	0xa8af	-0.0366
146	0x2821	0.03226
147	0x2d62	0.0841
148	0x2b3a	0.05646
149	0xa8b6	-0.0368
150	0xab35	-0.0563
151	0xaed8	-0.10693
152	0x2946	0.0412
153	0x259c	0.02191
154	0x241c	0.01605
155	0xa818	-0.03198
156	0x2d68	0.0845
157	0xad34	-0.0813
158	0x2e58	0.0991
159	0x2bf8	0.06226
160	0x2723	0.02788
161	0xaf04	-0.1096
162	0xadee	-0.09265
163	0xac8f	-0.0712
164	0xa300	-0.01367
165	0xadb4	-0.0891
166	0x2e31	0.09674
167	0x2baf	0.06003
168	0xa942	-0.04108
169	0xad2b	-0.08075
170	0x2e39	0.0972
171	0xaf62	-0.11536
172	0x29ff	0.04684
173	0x29a3	0.04404
174	0x27ca	0.03043
175	0x2e43	0.09784
176	0x2c89	0.07086
177	0xaf7f	-0.1171
178	0x2b9e	0.0595
179	0x8d02	-0.0003057
180	0x2dee	0.09265
181	0x9ec4	-0.006607
182	0x2ada	0.05353
183	0xaa5d	-0.0497
184	0x295a	0.0418
185	0xaeea	-0.10803
186	0x1644	0.00153
187	0xaed9	-0.107
188	0x26c7	0.02647
189	0xad65	-0.0843
190	0xaee7	-0.10785
191	0xa98f	-0.04343
192	0x27cf	0.0305
193	0xaa4e	-0.04926
194	0xab2a	-0.05597
195	0xaea3	-0.1037
196	0x995e	-0.00262
197	0xaa26	-0.04803
198	0xada3	-0.0881
199	0x2691	0.02565
200	0xab38	-0.0564
201	0xadf2	-0.0929
202	0xacc1	-0.0743
203	0xa9ba	-0.04474
204	0x2ed3	0.1066
205	0xab41	-0.05667
206	0x27a5	0.02986
207	0x291b	0.0399
208	0x298f	0.04343
209	0x2b00	0.0547
210	0xaad2	-0.05328
211	0xadf4	-0.093
212	0x2d87	0.08636
213	0xa87c	-0.03503
214	0x1361	0.0009007
215	0xa453	-0.01689
216	0xac4e	-0.06726
217	0x2ddd	0.0916
218	0x240b	0.0158
219	0x94fd	-0.001218
220	0xaced	-0.07697
221	0xaed2	-0.10657
222	0xaa7c	-0.05066
223	0xa9eb	-0.04623
224	0xae57	-0.09906
225	0x25a5	0.02205
226	0x1b48	0.003555
227	0x2dbc	0.0896
228	0xae98	-0.103
229	0x2de2	0.0919
230	0xaba2	-0.05963
231	0x2e11	0.0948
232	0xa75b	-0.02873
233	0x2c37	0.06586
234	0x18d5	0.00236
235	0xacfa	-0.07776
236	0xacc1	-0.0743
237	0xaca6	-0.07263
238	0xae76	-0.10095
239	0xac6a	-0.069
240	0xab5c	-0.0575
241	0x2aaf	0.05222
242	0x2beb	0.06186
243	0x2d0b	0.0788
244	0x2ca5	0.0726
245	0xabb4	-0.06018
246	0xae7d	-0.1014
247	0x273e	0.02829
248	0xa9b0	-0.04443
249	0xa8ca	-0.0374
250	0x295c	0.04187
251	0x1899	0.002245
252	0x234f	0.014275
253	0x2d34	0.0813
254	0xad2e	-0.08093
255	0x2a7a	0.0506

sequential/dense_1/MatMul f2 [5, 256]
0	0xa897	-0.03586
1	0xaa78	-0.05054
2	0x2f81	0.11725
3	0xb0e8	-0.1533
4	0x2ce1	0.07623
5	0x1dae	0.005547
6	0x2443	0.01665
7	0xaedf	-0.10736
8	0x2201	0.01173
9	0x30de	0.1521
10	0xaf29	-0.1119
11	0xaf33	-0.1125
12	0xa061	-0.00855
13	0xaeeb	-0.1081
14	0xac97	-0.0717
15	0xa9a6	-0.04413
16	0x30cd	0.15
17	0x2dad	0.0887
18	0xb0f5	-0.1549
19	0x2f7a	0.1168
20	0x2f0f	0.1103
21	0x2bca	0.06085
22	0xa6fd	-0.0273
23	0x2557	0.02086
24	0xadf6	-0.09314
25	0x288a	0.03546
26	0xacf7	-0.0776
27	0x3004	0.1255
28	0xa2c8	-0.013245
29	0xa6c7	-0.02647
30	0xb00d	-0.1266
31	0x2be3	0.0616
32	0xa541	-0.02052
33	0x28a3	0.03622
34	0xa800	-0.03125
35	0x2cb5	0.07355
36	0xaa0e	-0.0473
37	0x2c4d	0.0672
38	0xab01	-0.05472
39	0xadfb	-0.09344
40	0x2f6a	0.11584
41	0xaef4	-0.10864
42	0xacb2	-0.07336
43	0x2642	0.02444
44	0xae14	-0.095
45	0x2e26	0.09607
46	0x2d7c	0.0857
47	0x30c1	0.1486
48	0x2aee	0.05414
49	0x2db8	0.08936
50	0xaed0	-0.10645
51	0x2c2b	0.0651
52	0x2fa9	0.1197
53	0x2cd9	0.07574
54	0x308b	0.142
55	0xac62	-0.0685
56	0x1e28	0.006012
57	0xb032	-0.1311
58	0xabf4	-0.06213
59	0x30a4	0.145
60	0x2b89	0.05887
61	0xaf18	-0.11084
62	0xad12	-0.0792
63	0x2ad5	0.05338
64	0xb02a	-0.1301
65	0x2a7e	0.05072
66	0xa449	-0.01674
67	0x3086	0.1414
68	0x2ae9	0.054
69	0x273b	0.02824
70	0xab2a	-0.05597
71	0xa9cd	-0.04532
72	0xb07a	-0.1399
73	0xa5a7	-0.02208
74	0xb054	-0.1353
75	0x2b2d	0.05606
76	0x2702	0.02737
77	0xb092	-0.1428
78	0x2a39	0.0486
79	0x303f	0.1327
80	0xaa8e	-0.0512
81	0xae08	-0.09424
82	0xb092	-0.1428
83	0x2aaa	0.05206
84	0x3020	0.1289
85	0x2bf5	0.06216
86	0x27e2	0.03079
87	0xaeef	-0.10834
88	0x2364	0.014435
89	0x30ae	0.1462
90	0xa79a	-0.0297
91	0x26a3	0.02592
92	0x2b21	0.0557
93	0xb116	-0.1589
94	0x2c10	0.0635
95	0x2a7c	0.05066
96	0xa16b	-0.01058
97	0xb099	-0.1437
98	0x3035	0.1315
99	0x2e48	0.09814
100	0xacb9	-0.0738
101	0xaccd	-0.075
102	0xa934	-0.04065
103	0x2042	0.008316
104	0x2df1	0.09283
105	0x2d3c	0.0818
106	0x2c21	0.0645
107	0xa921	-0.04007
108	0x996a	-0.002644
109	0xaeab	-0.1042
110	0xac99	-0.07184
111	0x2fd0	0.1221
112	0x2e0e	0.0946
113	0xa4bf	-0.01854
114	0xb150	-0.166
115	0xac05	-0.0628
116	0xaddc	-0.09155
117	0xb056	-0.1355
118	0xaaba	-0.05255
119	0x96ab	-0.001628
120	0x2b9a	0.0594
121	0xb107	-0.1571
122	0x2d05	0.0784
123	0x29cf	0.04538
124	0x30fc	0.1558
125	0x2d78	0.08545
126	0x2c83	0.0705
127	0x2fdf	0.123
128	0x2f8a	0.1178
129	0xb124	-0.1606
130	0x2e1c	0.09546
131	0xacc0	-0.0742
132	0x20e2	0.00954
133	0x2db9	0.0894
134	0x3065	0.1373
135	0xa5bb	-0.02238
136	0x2f8d	0.118
137	0x3016	0.1277
138	0xae40	-0.09766
139	0xaba3	-0.05966
140	0x2830	0.0327
141	0xa4cc	-0.01874
142	0x2b71	0.05814
143	0x28df	0.03806
144	0xaa49	-0.0491
145	0xad7e	-0.0858
146	0x27b1	0.03004
147	0x20b8	0.00922
148	0xaa64	-0.04993
149	0x30b2	0.1467
150	0xa919	-0.03983
151	0x9f06	-0.00686
152	0xaa6e	-0.05023
153	0x2724	0.0279
154	0x2ed9	0.107
155	0x2d10	0.0791
156	0xa7c3	-0.03032
157	0xa4ad	-0.01826
158	0x3069	0.1378
159	0x2d4d	0.0828
160	0x2aed	0.0541
161	0xaff4	-0.12427
162	0xac2c	-0.0652
163	0x295a	0.0418
164	0xb051	-0.1349
165	0xa42d	-0.01631
166	0x312c	0.1616
167	0xad8f	-0.08685
168	0x2ef6	0.10876
169	0x2f7a	0.1168
170	0x2bbb	0.0604
171	0x2ec1	0.1055
172	0x3077	0.1395
173	0x2dd1	0.0909
174	0xab40	-0.05664
175	0xad91	-0.087
176	0xb16b	-0.1693
177	0xa469	-0.01723
178	0x2e4c	0.0984
179	0xadf3	-0.09296
180	0x9d73	-0.00532
181	0xaad8	-0.05347
182	0xaa63	-0.0499
183	0xb05c	-0.1362
184	0xb037	-0.1317
185	0x2b83	0.0587
186	0x24de	0.01901
187	0x200e	0.00792
188	0x2d4a	0.08264
189	0xafc8	-0.1216
190	0x2eae	0.1044
191	0x282e	0.03265
192	0x262c	0.02411
193	0x2fc2	0.1212
194	0xadd7	-0.09125
195	0x22ff	0.013664
196	0xa43a	-0.01651
197	0xac22	-0.0646
198	0x2b21	0.0557
199	0x2fdb	0.12274
200	0x2cd3	0.0754
201	0xac7c	-0.07007
202	0x27df	0.03075
203	0x96db	-0.001674
204	0x3074	0.1392
205	0x2fb1	0.1202
206	0xae85	-0.10187
207	0xad09	-0.0787
208	0x250f	0.01976
209	0xb0b9	-0.1476
210	0xad81	-0.086
211	0xa88f	-0.0356
212	0xa342	-0.014175
213	0xb048	-0.1338
214	0x2efa	0.109
215	0xa97e	-0.0429
216	0x29ec	0.04626
217	0x2312	0.01381
218	0x2eb8	0.105
219	0x2902	0.03912
220	0xaef9	-0.10895
221	0xae25	-0.096
222	0x3096	0.1433
223	0x2ed6	0.1068
224	0xb023	-0.1293
225	0xa9da	-0.04572
226	0x240f	0.01585
227	0xb0d7	-0.1512
228	0xaf6a	-0.11584
229	0x2497	0.01793
230	0xaf79	-0.11676
231	0xa7ab	-0.02995
232	0xa7fe	-0.03122
233	0x2890	0.03564
234	0x2016	0.00798
235	0x2fa5	0.11945
236	0x2839	0.033
237	0x2cbd	0.07404
238	0x273b	0.02824
239	0xa8cd	-0.0375
240	0xb14a	-0.1653
241	0xabe1	-0.06155
242	0x3043	0.1332
243	0x301f	0.1288
244	0xa9ca	-0.04523
245	0xa9c5	-0.04507
246	0x9ecf	-0.00665
247	0x2b07	0.0549
248	0x2a31	0.04837
249	0xaeae	-0.1044
250	0xa1bc	-0.0112
251	0xaef9	-0.10895
252	0xa84a	-0.0335
253	0xb11f	-0.16
254	0x2b7d	0.0585
255	0x2e36	0.09705
